test/eran_models/mnist_relu_5_100.onnx (onnx, 480907 bytes, 12 tensors)

10.bias f4 [100]
-6.712454e-06 -1.6982565e-05 0.00013366945 6.3475934e-05 -3.5964174e-05 -7.887759e-05 1.0143118e-05 2.3020864e-05
-1.3760192e-05 -6.25134e-05 -5.471996e-05 8.899185e-05 -0.00010534993 1.4769904e-05 -2.0892865e-06 7.0660953e-06
3.1958443e-05 4.600482e-05 -1.8070057e-05 8.309861e-05 4.0629922e-05 8.87932e-05 5.9820533e-05 -7.2765e-05
9.9927165e-05 4.068507e-05 4.644563e-05 -8.396474e-06 -1.5127254e-05 -1.1206053e-05 4.0271614e-05 1.5665866e-05
-6.9691535e-17 2.5205038e-05 -9.563098e-06 -7.3769166e-05 2.520039e-05 3.685935e-15 -2.310822e-05 2.2478845e-05
-4.854726e-05 -7.950488e-05 7.225281e-06 -4.307175e-05 -1.1078084e-21 -5.53875e-05 0.00011385899 4.799346e-05
-1.0939753e-05 1.2309819e-05 -2.7174454e-05 3.8066613e-05 6.825471e-05 1.855091e-05 -6.528674e-05 3.5967867e-05
4.0092706e-05 6.752723e-06 -1.5417485e-05 -6.191538e-05 2.5966547e-05 -5.5483656e-38 -4.7822765e-21 -3.1897653e-05
-1.9895893e-05 7.502895e-06 4.8306832e-05 -4.934007e-05 -6.772944e-05 -4.105385e-05 4.2304742e-05 -7.5640404e-05
-8.4750944e-05 1.1941374e-06 -1.29336795e-05 1.6039385e-05 3.9461527e-05 -6.8001546e-06 -7.673316e-05 -9.780014e-22
3.151555e-05 -3.0949565e-17 4.3413716e-16 -0.00011192483 5.908892e-06 7.6665914e-13 1.7849858e-05 7.154608e-06
-3.403915e-05 -6.238644e-05 -5.7917106e-05 -2.2256661e-05 -6.1183617e-27 1.882204e-05 1.7505114e-05 3.5740813e-05
2.0038591e-05 -6.528187e-06 7.0609414e-05 -2.489935e-05
00000000: 8a3b e1b6 c875 8eb7 9f29 0c39 621e 8538
00000010: 3dd8 16b8 156b a5b8 5c2c 2a37 ee1c c137
00000020: 93db 66b7 a019 83b8 1c83 65b8 23a1 ba38
00000030: 50ef dcb8 41cc 7737 ab35 0cb6 4c19 ed36
00000040: 1e0b 0638 4df5 4038 2795 97b7 3a45 ae38
00000050: 0c6a 2a38 7c36 ba38 cfe7 7a38 6999 98b8
00000060: fd8f d138 43a5 2a38 9ece 4238 95de 0cb7
00000070: 10cb 7db7 a201 3cb7 51e9 2838 316a 8337
00000080: 9fb2 a0a4 686f d337 3171 20b7 85b4 9ab8
00000090: 6d65 d337 c0cc 8427 86d8 c1b7 f490 bc37
000000a0: 399f 4bb8 dcbb a6b8 b170 f236 f0a7 34b8
000000b0: 4368 a79c e04f 68b8 94c7 ee38 964c 4938
000000c0: e289 37b7 4586 4e37 b2f4 e3b7 b7a9 1f38
000000d0: f823 8f38 c79d 9b37 8dea 88b8 34dc 1638
000000e0: 3729 2838 7395 e236 cc54 81b7 91d8 81b8
000000f0: bcd2 d937 770a 9781 57ab b49d d8c9 05b8
00000100: 1be6 a6b7 61c1 fb36 119d 4a38 7ff2 4eb8
00000110: f709 8eb8 3c31 2cb8 5f70 3138 22a1 9eb8
00000120: 51bc b1b8 4046 a035 bbfd 58b7 518c 8637
00000130: 7e83 2538 e22c e4b6 cdeb a0b8 99ca 939c
00000140: 902f 0438 ccba 0ea4 5643 fa25 30b9 eab8
00000150: ff44 c636 9dcb 572b 47bc 9537 9d11 f036
00000160: 42c5 0eb8 77d5 82b8 05ec 72b8 d1b3 bab7
00000170: 8f5f f293 06e4 9d37 f2d7 9237 68e8 1538
00000180: 8c18 a837 b30c dbb6 2414 9438 f2de d0b7

10.weight f4 [100, 100]
0.0434801 -0.0041888566 -0.017849792 9.793901e-15 0.042672902 0.1083799 -0.034957115 -0.0011707582
0.0037380606 0.02501836 -0.02589326 0.031583983 -0.07208043 0.035686273 0.047609694 2.2061915e-06
-0.0020881072 0.042406093 0.016785135 -3.4453527e-11 0.050399702 0.053020127 -0.017448988 0.017792858
0.03409707 0.018362233 0.048156455 -0.032603048 -0.061355438 -0.057455312 0.055779982 -0.0016245911
0.007136103 0.019526172 -0.0280056 -0.10157697 0.121736325 0.018599631 -0.012646109 0.061236292
0.1417903 0.13629983 -6.8159416e-08 0.024098223 -0.06874376 -0.0010049016 -0.05404593 -0.029975845
0.050065625 -0.075736776 0.10116617 -1.7515861e-13 0.039661273 0.028817616 0.037308082 -0.056793433
3.8094038e-35 2.6334545e-21 -0.017701963 -0.028378695 -0.09463172 0.018364513 -0.083984494 1.10920784e-17
-1.2471609e-05 0.02568439 -0.010721438 -0.053032123 -0.051165026 -0.0279088 -0.06306001 0.009614472
-0.026125345 0.10376842 0.013349333 0.11589906 -0.011354265 0.022404827 -0.0029506213 0.030289697
-0.04516393 0.0773881 0.014311025 -0.0068396167 0.052545194 0.029120289 0.043333888 -0.10943086
-0.032402128 -2.646024e-29 0.019049212 -0.009904182 -0.03304458 -0.033512753 0.026843566 0.024891676
0.0022347958 -0.11212984 9.9809964e-05 -0.024385082 -0.059810884 0.08010035 0.025680834 1.580129e-14
0.050908104 -0.19339779 0.0507831 -0.16458154 0.096953884 0.17456692 0.090334736 -0.09118292
0.07990074 -0.068710685 0.05598023 1.021316e-05 0.19451265 -0.049350534 -0.0031495858 6.035973e-11
-0.011173281 0.02335898 -0.031236919 -0.023592576 -0.02284352 0.00040404015 0.10221648 -0.095153265
-0.010439298 0.096154496 0.056024514 0.037244923 -0.00052295707 -0.0579451 -0.019856459 0.17281407
-0.08425887 -0.025400983 0.035800382 -0.09539048 -0.04494539 0.121556684 3.2262875e-07 0.09831526
0.008039411 0.010125429 -0.10697888 0.0033428778 0.16671808 0.109067954 0.058564313 -2.3180898e-13
-0.022712644 -0.08096191 0.03093607 -0.109372914 -9.830252e-35 -1.4417321e-21 -0.0040479857 0.0023772544
0.25133157 -0.052032795 0.022368686 1.5112965e-17 -4.7625563e-05 0.04658178 -0.0037246628 -0.07828331
0.1262173 -0.029234113 0.10682982 -0.10457078 -0.056392033 -0.023123072 -0.040328268 -0.10161821
0.08898409 -0.11702326 -0.038562533 0.028941788 0.020862745 -0.0636348 -0.026680902 0.06565031
-0.110409275 0.05332397 -0.05027459 0.1311845 0.055341538 5.2452842e-12 0.07101198 0.004228976
0.11098178 0.015261696 0.081003375 0.012994896 -0.13651976 0.15990059 0.20590232 0.0051681427
0.10979103 -0.00040466688 -0.10679302 -7.8512195e-15 0.06272049 0.08238538 0.022550019 0.061107475
0.109272845 -0.08376612 0.10421243 0.025385542 -0.10397632 0.046365634 -0.006239106 -1.811986e-05
0.038568858 0.16065767 -0.0068525467 6.1243524e-11 0.07831574 0.053017933 -0.072971724 -0.044638634
0.0029198697 0.11102835 0.041482266 -0.018236492 -0.018096589 -0.10783733 0.10974933 -0.019639129
0.03116187 0.0053586387 0.0741735 -0.012363122 0.116348274 -0.033356924 -0.026397709 0.022410208
0.06356715 0.18133968 -4.9668205e-07 0.041709106 -0.0615487 -0.012936929 -0.04772968 0.032997847
-0.061680157 -0.0057598455 0.0793718 5.8992145e-14 0.13115421 -0.0053567137 0.071789354 0.012390326
00000000: 3018 323d ad42 89bb ba39 92bc 656e 3028
00000010: c8c9 2e3d 48f6 dd3d 312f 0fbd 2074 99ba
00000020: 40fa 743b 4ef3 cc3c 1a1e d4bc 355e 013d
00000030: e89e 93bd c52b 123d 6202 433d 150e 1436
00000040: a0d8 08bb 03b2 2d3d fb80 893c 3987 17ae
00000050: eb6f 4e3d a22b 593d 2ef1 8ebc 54c2 913c
00000060: 5fa9 0b3d 656c 963c b43f 453d c68a 05bd
00000070: d74f 7bbd 4356 6bbd 8d79 643d 3bf0 d4ba
00000080: f9d5 e93b 5af5 9f3c 006c e5bc 9607 d0bd
00000090: e550 f93d 415e 983c a031 4fbc e8d2 7a3d
000000a0: 7a31 113e 2f92 0b3e 095f 92b3 a369 c53c
000000b0: 87c9 8cbd e7b6 83ba 445f 5dbd e78f f5bc
000000c0: 9d11 4d3d e21b 9bbd 3530 cf3d 0836 45aa
000000d0: dc73 223d ec12 ec3c 5cd0 183d 3ba0 68bd
000000e0: eb8a 4a06 6bfa 461d b503 91bc 707a e8bc
000000f0: 46ce c1bd 2d71 963c 1000 acbd dc9c 4c23
00000100: 273d 51b7 1268 d23c f8a8 2fbc 3638 59bd
00000110: 6b92 51bd ffa0 e4bc 9b25 81bd 0586 1d3c
00000120: d204 d6bc 8a84 d43d 29b7 5a3c 7d5c ed3d
00000130: 3d07 3abc 548a b73c 365f 41bb 1922 f83c
00000140: d0fd 38bd a77d 9e3d ca78 6a3c dd1e e0bb
00000150: a139 573d ac8d ee3c e07e 313d 491d e0bd
00000160: 18b8 04bd 5b2b 0690 180d 9c3c 2645 22bc
00000170: c159 07bd ab44 09bd 0ae7 db3c a1e9 cb3c
00000180: a775 123b 54a4 e5bd 1151 d138 39c3 c7bc
00000190: 42fc 74bd a70b a43d 9d60 d23c 4b53 8e28
000001a0: 0485 503d 120a 46be f101 503d 1088 28be
000001b0: c28f c63d acc1 323e 6b01 b93d 1cbe babd
000001c0: 00a3 a33d 30b8 8cbd 874b 653d 3059 2b37
000001d0: 532e 473e c923 4abd 4869 4ebb 82bb 842e
000001e0: 2310 37bc 555b bf3c 91e4 ffbc 3845 c1bc
000001f0: 5522 bbbc 5ad5 d339 e056 d13d b7df c2bd
00000200: 9709 2bbc a6ec c43d f679 653d 228e 183d
00000210: 0e17 09ba d757 6dbd 03aa a2bc 2cf6 303e
00000220: ea8f acbd b915 d0bc 6ca3 123d 155c c3bd
00000230: a818 38bd b6f2 f83d c235 ad34 8359 c93d
00000240: bcb7 033c 21e5 253c be17 dbbd 2f14 5b3b
00000250: 25b8 2a3e 055f df3d 22e1 6f3d 327f 82aa
00000260: de0f babc 5ccf a5bd a46d fd3c e8fe dfbd
00000270: 9daa 0287 4fde d99c f7a4 84bb b6cb 1b3b
00000280: 88ae 803e 5720 55bd 893e b73c 7b64 8b23
00000290: 8fc1 47b8 89cc 3e3d 7919 74bb 0053 a0bd
000002a0: 1c3f 013e 617c efbc 98c9 da3d 3529 d6bd
000002b0: 55fb 66bd 996c bdbc 412f 25bd 351d d0bd
000002c0: 4a3d b63d e4a9 efbd bff3 1dbd 5417 ed3c
000002d0: 59e8 aa3c f652 82bd e891 dabc ab73 863d
000002e0: 421e e2bd 3c6a 5a3d baec 4dbd 3b55 063e
000002f0: cfad 623d 528d b82c bb6e 913d 3993 8a3b
00000300: 6a4a e33d 310c 7a3c 19e5 a53d 8be8 543c
00000310: d6cb 0bbe fbbc 233e 0fd8 523e 8659 a93b
00000320: 1fda e03d 7829 d4b9 4db6 dabd 5c6f 0da8
00000330: 9a73 803d abb9 a83d d1ba b83c d54b 7a3d
00000340: 71ca df3d 928d abbd 546d d53d 57f5 cf3c
00000350: 89f1 d4bd e4e9 3d3d 6a71 ccbb 1a00 98b7
00000360: 61fa 1d3d 7283 243e 548b e0bb 0aad 862e
00000370: 0164 a03d 5529 593d 3372 95bd 00d7 36bd
00000380: 495b 3f3b d562 e33d 4fe9 293d b264 95bc
00000390: 4c3f 94bc d1d9 dcbd 42c4 e03d 3de2 a0bc
000003a0: 2e47 ff3c 8597 af3b 47e8 973d b18e 4abc
000003b0: 0148 ee3d 45a1 08bd 0240 d8bc 9d95 b73c
000003c0: 7e2f 823d 1cb1 393e bb53 05b5 2bd7 2a3d
000003d0: 7d1a 7cbd 6af5 53bc 3280 43bd c028 073d
000003e0: 55a4 7cbd 16bd bcbb af8d a23d a8d6 8429
000003f0: 4a4d 063e 5f87 afbb 4c06 933d cb00 4b3c

12.bias f4 [10]
-5.714283e-05 -8.479169e-05 -1.7457984e-05 4.1869243e-05 2.2839264e-05 -1.0029539e-05 1.8499506e-06 5.0802933e-05
-5.7481113e-05 1.8832186e-05
00000000: a6ac 6fb8 31d2 b1b8 bc72 92b7 c29c 2f38
00000010: f296 bf37 8b44 28b7 d24b f835 3c15 5538
00000020: e017 71b8 d0f9 9d37

12.weight f4 [10, 100]
-0.048360128 0.14531332 -0.061013408 -0.09501576 0.14249548 0.078656875 0.09653144 0.0561084
0.09837639 0.07348383 0.17887373 0.0009925164 0.14835128 -0.044555288 -0.11785889 0.068642765
-0.124077275 -0.036847338 -0.038739897 -0.044158407 -0.0780867 -0.12586053 -0.05597295 0.21934469
-0.04026104 0.03800685 -0.0015403379 -0.023583293 0.07289797 0.018859377 -0.10158892 0.11353778
-3.8603723e-14 -0.0635352 0.062899314 0.002729557 -0.0036271785 -2.2393412e-24 -0.086862594 -0.035101753
-0.051643677 -0.031617448 0.037184417 0.026861507 -4.560753e-25 0.20089796 0.022400483 -0.0037615332
0.026560538 0.02121222 -0.13713266 0.056810956 -0.12642874 -0.09975482 0.0038782824 0.12841345
-0.062233765 0.1338264 0.06432977 -0.10059456 0.035572376 3.884175e-36 1.1561125e-24 -0.041476917
0.103746235 0.043059293 0.0030298631 -1.5590399e-07 0.013460946 -0.017863976 0.026385581 -0.00018036719
-0.026358327 0.02215005 -0.08997516 0.0064366357 -0.039795946 0.019642869 0.043621134 4.9474695e-09
-0.048452068 -4.8608554e-22 -1.2713422e-11 -0.0064127157 -0.07201349 3.5891176e-10 -0.09417476 -3.7515453e-09
0.024753865 0.071465924 0.117101185 -0.018378146 2.763641e-23 -0.06804594 -0.040587433 -0.023788031
-0.08072457 0.115983054 -0.13599992 0.16018477 -0.030133188 -0.11445442 -0.15701202 0.031422026
0.005806203 -0.06278126 0.0006541825 -0.112436876 -0.005376984 -0.010297839 0.056769803 0.02463019
0.021084893 0.056782126 0.11052922 -0.002198174 -0.13818297 0.063434824 0.14836673 -0.055516127
0.101715565 -0.012913067 0.14199437 0.018767059 -0.051438566 -0.058138166 -0.053202555 0.16535288
0.2149533 -0.13583474 0.04757655 0.021747978 4.2738687e-14 -0.067107454 0.015447247 0.033672422
0.1298373 -1.5987808e-23 0.0776016 0.0049434076 0.030983135 -0.13583513 -0.0070278677 -0.010894715
-2.7673136e-24 -0.006806324 -0.07040895 0.0141014885 -0.0033064527 -0.011708631 -0.062255353 -0.04906504
0.18849954 -0.00582604 0.095699914 -0.009702859 0.041728612 -0.02677773 0.00053381355 0.11318901
0.048818663 -2.09571e-23 -2.833977e-25 -0.04698722 -0.059534546 0.080936655 0.11694027 0.0840622
-0.03167642 -0.122745015 -0.02273071 -0.090944484 0.1988319 -0.045005247 0.017118502 -0.03651688
0.04483408 0.15404084 -0.029022332 -1.8043349e-10 -0.0065204874 5.0169344e-18 4.513436e-11 0.20173639
-0.064177126 -2.9559626e-11 0.071735784 1.7290257e-07 -0.034530267 -0.058132973 -0.00073580386 -0.15236999
-1.0911229e-12 0.056293547 0.11722502 0.05754777 -0.06020777 -0.013855785 -0.0005986917 -0.020962004
0.053103093 0.16056135 -0.09137624 -0.10255463 -0.12923716 -0.030447789 -0.050435804 0.09999614
0.11718778 0.06251504 0.032119527 0.16122587 0.09265252 -0.057084724 -0.10451961 0.015658434
0.016087554 -0.12037527 -0.043252207 -0.08660614 0.123418204 0.06736086 -0.0024908942 -0.1480711
0.11405181 -0.13582212 -0.06814001 -0.06197078 0.030672312 -0.00028000082 -0.07818059 -0.10574633
1.5368207e-14 0.029903602 0.21022251 0.14790903 -0.013984908 -2.4055246e-11 -0.023719106 -0.0008786105
-0.09967302 -0.013631989 0.021473585 0.05970954 -4.6087043e-17 0.14083564 -0.114175685 -0.074163616
-0.017378245 -0.017734485 0.00053668633 0.026959209 -0.012453445 0.16132204 -0.016744154 -0.028254848
00000000: 4515 46bd 04cd 143e 32e9 79bd 9f97 c2bd
00000010: 56ea 113e db16 a13d 47b2 c53d ecd1 653d
00000020: 9079 c93d b17e 963d ad2a 373e 5317 823a
00000030: 66e9 173e 9b7f 36bd 0060 f1bd 9494 8c3d
00000040: 3a1c febd 3ced 16bd baad 1ebd 72df 34bd
00000050: ebeb 9fbd 95e1 00be e443 65bd e59b 603e
00000060: c3e8 24bd 12ad 1b3d 2ae5 c9ba c031 c1bc
00000070: 884b 953d fb7e 9a3c da0d d0bd 7f86 e83d
00000080: 10db 2da9 be1e 82bd 5bd1 803d 5ee2 323b
00000090: f5b5 6dbb b942 2d98 04e5 b1bd dbc6 0fbd
000000a0: 5288 53bd 4c81 01bd b04e 183d aa0c dc3c
000000b0: 0226 0d97 32b8 4d3e 3881 b73c 0e84 76bb
000000c0: 7c95 d93c 40c5 ad3c 816c 0cbe 9bb2 683d
000000d0: 8976 01be 414c ccbd c82a 7e3b d17e 033e
000000e0: d5e8 7ebd ca09 093e 54bf 833d 8504 cebd
000000f0: 57b4 113d ec36 a504 56e6 b217 b3e3 29bd
00000100: e878 d43d f15e 303d ab90 463b 9066 27b4
00000110: 4d8b 5c3c 7957 92bc 9326 d83c f320 3db9
00000120: 6bed d7bc 0674 b53c e644 b8bd 6aea d23b
00000130: 1301 23bd 15ea a03c 13ac 323d 67fe a931
00000140: ad75 46bd 0ce9 129c 2aa8 5fad c221 d2bb
00000150: cf7b 93bd 5750 c52f b2de c0bd f1e6 80b1
00000160: 9ec8 ca3c ba5c 923d bfd2 ef3d c48d 96bc
00000170: 38a4 051a ab5b 8bbd 023f 26bd 1edf c2bc
00000180: ec52 a5bd 8688 ed3d 9043 0bbe 7a07 243e
00000190: e0d9 f6bc 1467 eabd c2c7 20be 62b4 003d
000001a0: f641 be3b 7693 80bd 727d 2b3a 4e45 e6bd
000001b0: 6931 b0bb 44b8 28bc 7487 683d 41c5 c93c
000001c0: 3aba ac3c 6094 683d 255d e23d 3d0f 10bb
000001d0: d67f 0dbe 1eea 813d 73ed 173e e164 63bd
000001e0: 4050 d03d 5491 53bc f966 113e 60bd 993c
000001f0: 3fb1 52bd 4922 6ebd ecea 59bd 4452 293e
00000200: b81c 5c3e 4318 0bbe a1df 423d d128 b23c
00000210: 5a7a 4029 a26f 89bd 7316 7d3c 18ec 093d
00000220: 12f4 043e e59f 9a99 96ed 9e3d 4ffc a13b
00000230: 58d0 fd3c 5d18 0bbe 074a e6bb bf7f 32bc
00000240: 4b1c 5698 9507 dfbb 9132 90bd ee09 673c
00000250: 12b1 58bb 8fd5 3fbc 78ff 7ebd 6cf8 48bd
00000260: 0606 413e 5ee8 bebb 51fe c33d bef8 1ebc
00000270: 9feb 2a3d f85c dbbc 9fef 0b3a a4cf e73d
00000280: 14f6 473d 44af ca99 286a af96 ac75 40bd
00000290: 7fda 73bd 1ec2 a53d 617e ef3d cd28 ac3d
000002a0: 22bf 01bd bd61 fbbd c135 babc 1a41 babd
000002b0: 979a 4b3e 6c57 38bd 1a3c 8c3c b992 15bd
000002c0: f1a3 373d e2bc 1d3e 3ec0 edbc 8363 46af
000002d0: d0a9 d5bb 9b17 b922 c680 462e fc93 4e3e
000002e0: 4c6f 83bd 2e01 02ae 36ea 923d 19a7 3934
000002f0: 9c6f 0dbd d71c 6ebd f6e2 40ba e106 1cbe
00000300: d88f 99ab 1094 663d ac13 f03d 36b7 6b3d
00000310: 6c9c 76bd 6003 63bc 85f1 1cba 82b8 abbc
00000320: a182 593d 326a 243e 7723 bbbd 2908 d2bd
00000330: bf56 04be a46d f9bc c695 4ebd c7ca cc3d
00000340: 2600 f03d e307 803d c48f 033d 6518 253e
00000350: 9bc0 bd3d acd1 69bd 610e d6bd 1e46 803c
00000360: 0cca 833c 4f87 f6bd 3a29 31bd 8f5e b1bd
00000370: afc2 fc3d 7ef4 893d 453e 23bb f39f 17be
00000380: ff93 e93d f414 0bbe fd8c 8bbd 13d5 7dbd
00000390: 8044 fb3c 13cd 92b9 251d a0bd 8891 d8bd
000003a0: ac6c 8a28 66f8 f43c 9244 573e 7775 173e
000003b0: f520 65bc 9997 d3ad 924e c2bc 8d52 66ba
000003c0: 5e21 ccbd b558 5fbc 5fe9 af3c fe91 743d
000003d0: fa89 54a4 3837 103e f1d4 e9bd 18e3 97bd
000003e0: d25c 8ebc e947 91bc 69b0 0c3a 8fd9 dc3c
000003f0: 8909 4cbc 9b31 253e 092b 89bc b676 e7bc

2.bias f4 [100]
0.0002561206 -2.9212006e-05 -7.94201e-05 4.4647553e-05 0.00014407857 5.651862e-05 8.082413e-05 -0.00013665036
0.00016549279 2.8124501e-05 0.00012288574 -8.673857e-05 -7.737018e-06 9.338922e-05 9.714088e-05 8.0796504e-05
0.00017730979 -8.13594e-06 8.432732e-05 -2.120966e-05 0.00017429325 4.1227972e-06 2.3831282e-05 0.00017016292
-4.6645153e-05 0.00020036104 0.00018214315 5.0942144e-05 0.000108408174 -0.00039206358 -4.7563804e-05 -1.8510555e-05
5.2409498e-05 8.93285e-05 -2.2825816e-06 -0.00012501782 -6.844493e-05 7.2157e-05 2.5851417e-05 -4.789349e-05
1.2941382e-05 1.696658e-05 -1.7894008e-06 -0.00013731208 7.495714e-05 -0.000106750646 -8.0742495e-05 4.0481977e-05
-2.0379846e-05 -8.907327e-05 -0.00013750119 6.2777412e-06 -2.6784222e-05 9.838265e-05 -2.609749e-06 7.74308e-06
-3.44456e-05 -0.00011077607 -4.981466e-05 1.9449191e-05 0.00016570555 0.00023594932 3.5655703e-05 0.00015345572
0.00013579492 7.2875104e-05 8.5829655e-05 -0.00012870667 -9.103602e-05 -2.6184458e-05 7.725285e-05 -4.3090015e-05
-3.9385327e-06 0.00014581809 3.561644e-05 -0.000102550555 5.184648e-05 -4.5802757e-05 0.00019025277 0.0001515478
0.000136464 2.0557334e-05 -4.8544352e-05 8.577116e-05 8.9657944e-05 -0.000247283 -9.0054655e-06 1.2240928e-05
0.000110988854 8.1115766e-05 0.00013617708 4.4259818e-05 9.228941e-05 0.00010985728 -6.4768334e-05 -5.0978495e-05
-7.1043316e-05 -3.976401e-05 -1.11785685e-05 0.000103604274
00000000: ed47 8639 4e0c f5b7 578e a6b8 f243 3b38
00000010: cc13 1739 680e 6d38 2080 a938 cd49 0fb9
00000020: 2288 2d39 e8ec eb37 e4da 0039 6ae7 b5b8
00000030: 3dce 01b7 f5d9 c338 1db8 cb38 4b71 a938
00000040: 3cec 3939 997f 08b7 e3d8 b038 66eb b1b7
00000050: 7dc2 3639 8f56 8a36 4ae9 c737 c36d 3239
00000060: daa4 43b8 0218 5239 aefd 3e39 b6aa 5538
00000070: 3259 e338 e28d cdb9 3f7f 47b8 1d47 9bb7
00000080: 45d2 5b38 e055 bb38 742e 19b6 3717 03b9
00000090: 188a 8fb8 ff52 9738 7fdb d837 3ee1 48b8
000000a0: d01e 5937 7453 8e37 582b f0b5 6efb 0fb9
000000b0: 4f32 9d38 51df dfb8 4c54 a9b8 31cb 2938
000000c0: 63f5 aab7 d9cc bab8 322e 10b9 63a5 d236
000000d0: aeae e0b7 c852 ce38 2523 2fb6 46e8 0137
000000e0: ae79 10b8 7350 e8b8 15f0 50b8 d226 a337
000000f0: 3fc1 2d39 2a69 7739 058d 1538 f5e8 2039
00000100: 2c64 0e39 86d4 9838 72ff b338 6ff5 06b9
00000110: 97ea beb8 b2a6 dbb7 cf02 a238 8dbb 34b8
00000120: bd27 84b6 bfe6 1839 dc62 1538 6910 d7b8
00000130: bc75 5938 561c 40b8 977e 4739 cee8 1e39
00000140: c717 0f39 8a72 ac37 1a9c 4bb8 0ae0 b338
00000150: be06 bc38 c3a5 81b9 2e16 17b7 635e 4d37
00000160: b0c2 e838 b21c aa38 c2ca 0e39 9ea3 3938
00000170: 808b c138 2e63 e638 3cd4 87b8 bed1 55b8
00000180: 17fd 94b8 48c8 26b8 968b 3bb7 1f46 d938

2.weight f4 [100, 784]
-0.00016818935 -0.00015182837 -0.0001408867 -0.0001679983 -0.00015810413 -0.00015787865 -0.00015097896 -0.00015348007
-0.00014259186 -0.00016860868 -0.00015544743 -0.00015458977 -0.00014077085 -0.00015508132 -0.00015738729 -0.00015780369
-0.00016146945 -0.0001659345 -0.00016293787 -0.00015559394 -0.0001604006 -0.0001601109 -0.00015584013 -0.00015779294
-0.00015596414 -0.0001603765 -0.00016540573 -0.0001582399 -0.00016522792 -0.00016542373 -0.00015457315 -0.00015126429
-0.00016155586 -0.00016420003 -0.00018050992 -0.00016420383 -0.00017117869 -0.00016349061 -0.00013518194 -0.00014377556
-0.0001714024 -0.00018495096 -0.00017618142 -0.00019244495 -6.0936974e-05 -5.4540244e-05 -0.0001243818 -0.00012115919
-0.00012178891 -0.00011072305 -0.00015155111 -0.00015648891 -0.00015758684 -0.000159484 -0.00014363529 -0.00015085495
-0.00014857089 -0.000172195 -0.0001710376 -0.00014927256 -0.00015949295 -0.00016272796 -0.00014376783 -0.0001521282
-0.00012265904 -0.0001895244 -0.00028820513 -0.00020287144 -0.00012752328 -7.735612e-05 -2.801253e-05 -0.0002482934
-0.00033695897 -0.00017743935 -0.00013993627 -0.00017158124 -0.00017765006 -0.00016327703 -0.00016279104 -0.00016435681
-0.00013522232 -0.00014097586 -0.00016635815 -0.0001535509 -0.00015349212 -0.00016147006 -0.00016050499 -0.00013582963
-0.000151583 -0.0001521986 -0.00015035455 -0.000109456596 -0.000102862476 -4.4235254e-05 -0.00022405955 -6.813311e-05
-0.00023837181 -0.00030052822 -0.00019546942 -6.658624e-05 4.4168602e-05 -0.00014366012 -0.00028329008 -0.00041809957
-0.00018182266 5.9371458e-05 1.4112672e-05 -8.0692684e-05 -0.00015304743 -0.00015179407 -0.0001365993 -0.00014543647
-0.00014957352 -0.00015268875 -0.00016620482 -0.00015350353 -0.00014952189 -0.00020970288 -0.0001912802 -5.2981108e-05
-0.00021257979 -0.00047970022 -0.0010451815 -0.0039208992 -0.0049832417 9.442363e-05 0.0019575066 0.005198295
0.0074521536 0.008910103 0.006834024 0.002677771 0.00083418784 1.6231708e-05 7.6242766e-05 8.235883e-05
-0.0002018518 -0.000146736 -0.0001550504 -0.00016445325 -0.00016560247 -0.0001572863 -0.00013976451 -0.00016827519
-0.00022083693 -0.00031409788 -0.00032572914 -0.0005092486 -0.0010049235 -0.0068143737 0.00055982353 0.018233636
0.034695446 0.029246531 0.03315625 0.037401795 0.055078253 0.049859207 0.049434654 0.033711042
0.00092776713 -0.00072845205 -0.00064382784 -0.00038247835 -0.00020228443 -0.00029878932 -0.00016569032 -0.0001621856
-0.00016054152 -0.00012768606 -0.00013991489 -0.00019648693 -0.00029168348 -0.00049593986 -0.00065493595 -0.0014374071
-0.004588776 -0.0043193237 0.0033013108 0.013622551 0.01177952 -0.0058705998 -0.014872181 -0.00400044
0.018606845 0.047656316 0.04894476 0.016328286 -0.008534862 -0.0054215407 -0.0077236877 -0.0014615386
-0.0003289869 -0.00036687675 -0.00027424365 -0.00017737676 -0.00015427184 -0.00014126192 -0.00014860809 -0.00019492062
-0.00032347182 -0.00050013955 -0.00085055555 -0.0034317416 -0.011036305 -0.01094945 -0.014516359 -0.015807454
-0.0146718435 -0.016465016 -0.009021397 0.016851911 0.038745224 0.06603137 0.036141723 -0.0017971221
-0.02704005 -0.014845931 -0.02074802 -0.00958525 -0.00034263858 -0.00017775847 -0.00012818929 -0.00013121469
-0.0001657251 -0.00010631473 -0.00011422937 -0.00019152476 -0.00025780845 -0.00025725964 -0.0012099061 -0.0042141043
-0.0108924825 -0.020772245 -0.021554604 -0.021898072 -0.0251956 -0.0077243117 -0.009090008 0.01696393
0.05766186 0.02045679 0.00054682995 -0.023685059 -0.032565147 -0.018453555 -0.0073278598 -0.009390365
-0.00016090776 -0.00016013568 -0.00014224707 -0.0001222498 -0.00016597024 -0.000107320695 -8.8345594e-05 -0.00015278379
00000000: fc5b 30b9 1e34 1fb9 fcba 13b9 b328 30b9
00000010: c1c8 25b9 3a8c 25b9 1b50 1eb9 7eef 20b9
00000020: b684 15b9 8ccc 30b9 9aff 22b9 6019 22b9
00000030: e39b 13b9 539d 22b9 5408 25b9 1b78 25b9
00000040: 2050 29b9 b4fe 2db9 4dda 2ab9 ee26 23b9
00000050: 3531 28b9 71e3 27b9 0469 23b9 3875 25b9
00000060: 4e8a 23b9 bd2a 28b9 c370 2db9 33ed 25b9
00000070: 0841 2db9 9875 2db9 ea14 22b9 b39c 1eb9
00000080: 5267 29b9 1c2d 2cb9 4347 3db9 212e 2cb9
00000090: 6e7e 33b9 ad6e 2bb9 a0bf 0db9 75c2 16b9
000000a0: 7bba 33b9 65ef 41b9 57bd 38b9 0ccb 49b9
000000b0: 9496 7fb8 24c2 64b8 7c6c 02b9 d816 feb8
000000c0: ec68 ffb8 fc33 e8b8 b1e9 1eb9 2c17 24b9
000000d0: e53d 25b9 293b 27b9 ce9c 16b9 d12e 1eb9
000000e0: b2c9 1bb9 3e8f 34b9 8e58 33b9 0c86 1cb9
000000f0: 903d 27b9 f4a1 2ab9 62c0 16b9 9a84 1fb9
00000100: 099e 00b9 12bb 46b9 3d1a 97b9 e3b9 54b9
00000110: c5b7 05b9 403a a2b8 73fc eab7 602d 82b9
00000120: dea9 b0b9 030f 3ab9 dbbb 12b9 7dea 33b9
00000130: 9347 3ab9 5835 2bb9 e3b2 2ab9 3257 2cb9
00000140: 77ca 0db9 ebd2 13b9 6d70 2eb9 8202 21b9
00000150: baf2 20b9 4a50 29b9 3b4d 28b9 7d6d 0eb9
00000160: 40f2 1eb9 8097 1fb9 7ea8 1db9 108c e5b8
00000170: dfb7 d7b8 3e89 39b8 87f1 6ab9 afe2 8eb8
00000180: 72f3 79b9 3790 9db9 ecf6 4cb9 37a4 8bb8
00000190: ad41 3938 78a3 16b9 8d86 94b9 6034 dbb9
000001a0: a6a7 3eb9 9e05 7938 77c5 6c37 8e39 a9b8
000001b0: 5b7b 20b9 e92a 1fb9 183c 0fb9 4e80 18b9
000001c0: d6d6 1cb9 131b 20b9 4447 2eb9 caf5 20b9
000001d0: fac8 1cb9 b0e3 5bb9 6392 48b9 0838 5eb8
000001e0: f4e7 5eb9 4680 fbb9 79fe 88ba e37a 80bb
000001f0: 764a a3bb 4d05 c638 8349 003b 7656 aa3b
00000200: 3231 f43b aefb 113c f3ef df3b 8b7d 2f3b
00000210: 66ad 5a3a 5429 8837 86e4 9f38 0fb8 ac38
00000220: 2ea8 53b9 25dd 19b9 0695 22b9 1571 2cb9
00000230: 93a5 2db9 38ed 24b9 c08d 12b9 0773 30b9
00000240: 7690 67b9 81ad a4b9 a0c6 aab9 187f 05ba
00000250: a3b7 83ba 1c4b dfbb 1fc1 123a b55e 953c
00000260: d01c 0e3d 6c96 ef3c d9ce 073d a032 193d
00000270: bc99 613d 2b39 4c3d fe7b 4a3d 9714 0a3d
00000280: 6635 733a 97f5 3eba 8ec6 28ba 6087 c8b9
00000290: 501c 54b9 d3a6 9cb9 28bd 2db9 5e10 2ab9
000002a0: 0957 28b9 77e3 05b9 1eb6 12b9 0f08 4eb9
000002b0: 18ed 98b9 f601 02ba 02b0 2bba 6167 bcba
000002c0: 715d 96bb 1d89 8dbb ce5a 583b 1f31 5f3c
000002d0: e3fe 403c 295e c0bb 73aa 73bc 1f16 83bb
000002e0: 626d 983c 4533 433d 4d7a 483d e6c2 853c
000002f0: ced5 0bbc 2ea7 b1bb fd16 fdbb 1991 bfba
00000300: e07b acb9 5d59 c0b9 5cc8 8fb9 36fe 39b9
00000310: 08c4 21b9 b51f 14b9 aed3 1bb9 9b63 4cb9
00000320: a797 a9b9 cc1b 03ba d1f7 5eba 12e7 60bb
00000330: 9ed1 34bc 5265 33bc 06d6 6dbc a27e 81bc
00000340: 2c62 70bc a4e1 86bc 7bce 13bc 050d 8a3c
00000350: 50b3 1e3d 743b 873d 5809 143d 698d ebba
00000360: 1883 ddbc 593c 73bc c0f7 a9bc 740b 1dbc
00000370: 2ca4 b3b9 ad64 3ab9 8d6a 06b9 ad96 09b9
00000380: 7ec6 2db9 49f5 deb8 6d8e efb8 09d4 48b9
00000390: 772a 87b9 cee0 86b9 b695 9eba 7816 8abb
000003a0: 6276 32bc 8e2a aabc 4893 b0bc 9663 b3bc
000003b0: 0167 cebc 391c fdbb 42ee 14bc f1f7 8a3c
000003c0: d82e 6c3d 0095 a73c 2359 0f3a 2b07 c2bc
000003d0: 0863 05bd e92b 97bc 8b1e f0bb 0cda 19bc
000003e0: 59b9 28b9 18ea 27b9 2828 15b9 2e30 00b9
000003f0: 4c08 2eb9 5c11 e1b8 2e46 b9b8 9634 20b9

4.bias f4 [100]
7.2607814e-05 2.768717e-05 -8.734581e-07 -6.782442e-05 -0.00019080214 -1.9021316e-05 -7.785435e-05 4.335074e-05
-5.408151e-06 0.000112032016 3.6173456e-05 -1.1358936e-05 0.00012664951 5.7478273e-06 3.1187642e-07 -1.1668681e-14
6.5090084e-05 -3.221454e-05 3.606058e-06 4.698907e-05 0.00010553294 -7.136346e-05 7.217183e-05 -1.3137966e-05
6.433792e-05 6.3724314e-05 8.320755e-05 -0.0001367175 -9.9452765e-05 0.00015000322 5.2478415e-05 6.099123e-05
1.9327526e-05 1.6675362e-05 2.7658203e-05 0.0001203079 6.184408e-05 -0.00013090557 -1.3390349e-05 6.112446e-05
-4.9305527e-05 -3.2168595e-05 1.0992273e-05 5.3928903e-05 2.9319934e-05 3.6469116e-06 1.39292715e-05 7.083798e-05
-8.9063586e-05 -0.000116615956 7.9041245e-05 3.4829623e-05 -5.3361356e-07 -4.877741e-05 -1.583304e-05 -7.391431e-05
-9.769416e-05 6.694724e-05 9.69097e-05 0.00015837591 7.179153e-05 0.000118854485 0.00014140841 -0.00018215142
-5.493422e-05 -7.396797e-05 2.7919154e-05 7.7651915e-05 4.905151e-07 -7.2898074e-05 -3.9933848e-11 3.40791e-05
4.626505e-05 -0.00012597452 2.5367035e-05 0.0001889771 1.8466882e-05 7.1456765e-05 1.163419e-06 0.00019871666
7.295732e-05 -2.646448e-05 -4.0795992e-05 -2.602529e-05 -4.6750018e-05 1.9879672e-05 4.9257847e-05 -7.522334e-05
-8.832783e-06 -2.9158853e-06 4.533058e-05 -0.00010610954 1.6702777e-05 -8.279645e-05 -1.7603064e-05 4.630694e-06
0.00023667952 -6.7932524e-05 1.0974679e-05 6.219904e-05
00000000: 0645 9838 bf41 e837 9577 6ab5 f53c 8eb8
00000010: 0f12 48b9 f78f 9fb7 bc45 a3b8 81d3 3538
00000020: aa77 b5b6 bbf2 ea38 f4b8 1738 4292 3eb7
00000030: 38cd 0439 76dd c036 f86f a734 4b34 52a8
00000040: f980 8838 191e 07b8 9bff 7136 2116 4538
00000050: 9151 dd38 f7a8 95b8 f55a 9738 226b 5cb7
00000060: 28ed 8638 bba3 8538 b77f ae38 d35b 0fb9
00000070: 4c91 d0b8 2f4a 1d39 451c 5c38 d6d0 7f38
00000080: 8c21 a237 11e2 8b37 8a03 e837 d04d fc38
00000090: 4ab2 8138 b243 09b9 1ca7 60b7 f22f 8038
000000a0: 68cd 4eb8 c4ec 06b8 746b 3837 b831 6238
000000b0: 14f4 f537 77bd 7436 c4b1 6937 da8e 9438
000000c0: a6c7 bab8 b78f f4b8 f2c2 a538 0616 1238
000000d0: a53d 0fb5 5896 4cb8 32d1 84b7 7102 9bb8
000000e0: 27e1 ccb8 0766 8c38 003c cb38 b611 2639
000000f0: c98e 9638 8441 f938 0847 1439 e6ff 3eb9
00000100: 2b69 66b8 401f 9bb8 ed33 ea37 0ed9 a238
00000110: f1ab 0335 dbe0 98b8 84a1 2fae 28f0 0e38
00000120: b80c 4238 0718 04b9 4bcb d437 2728 4639
00000130: 54e9 9a37 0fdb 9538 c626 9c35 995e 5039
00000140: aa00 9938 0a00 deb7 5d1c 2bb8 e250 dab7
00000150: 7315 44b8 45c3 a637 369a 4e38 39c1 9db8
00000160: 8430 14b7 87ae 43b6 5721 3e38 2087 deb8
00000170: f11c 8c37 01a3 adb8 4baa 93b7 5c61 9b36
00000180: 2d2d 7839 ff76 8eb8 e31f 3837 db70 8238

4.weight f4 [100, 100]
0.07454728 0.0015319991 0.042468417 -0.03749185 -0.0024902667 -0.0045376383 -0.0090669 0.078806974
-0.028586064 0.026746199 0.069246784 0.0077503175 0.1618313 0.030908523 0.020984631 -0.016602403
0.028250508 0.06617276 0.00028499868 0.04922324 0.09944798 0.03870317 0.022307444 0.026618807
0.075384244 0.0318503 -0.100603156 0.094005115 -0.046815105 -0.05479574 0.082889825 0.09199101
0.042802192 0.08083792 -0.08372213 0.029820716 0.015628861 0.08979353 0.07104577 0.067675725
0.071284615 0.0987571 -0.028309677 -0.06631511 -0.07391079 0.06029934 -0.0355336 0.029807558
0.08254475 0.001185842 -0.00818113 0.12837745 0.018774271 0.054561622 0.0728968 0.029513737
-0.0063188076 -0.00070146716 0.09527595 0.013150798 0.032258824 -0.034402497 0.07950147 0.038601525
-0.07956686 0.063415244 0.057352684 -0.01749703 0.091713674 -0.019855155 0.033805206 -0.069248654
0.12629546 0.011181063 0.10252176 -0.00373716 -0.028669514 -0.06446086 0.014714781 0.08557682
0.08190501 0.075390294 0.013687681 -0.013439302 0.006760803 0.07141213 -0.002666984 -0.015803834
0.07365842 -0.003967121 0.026912278 0.0720698 0.029308978 -0.06086374 0.06520213 -0.076407366
-0.0034454763 0.004319597 -0.03838429 0.01162889 0.07809022 -0.003135989 -0.10263397 -0.13437824
0.018736023 0.072278775 -0.039734144 -0.029189253 0.024975793 -0.0077019627 -0.004032586 0.053651273
0.04926114 0.071391724 0.0345189 0.061787903 -0.06282527 -0.0032837007 -0.061987378 0.04398375
-0.048971154 -0.09808703 0.024068927 0.03891823 0.03963266 0.096046925 0.12793244 -0.061706103
-0.023446996 -0.019249009 0.0030789666 0.037295517 0.031088049 0.07289466 0.04204787 -0.0060147317
0.0037265613 -0.087414816 0.06439339 0.006323188 0.0052320417 0.04576797 0.090317935 -0.026122384
-0.014091563 -0.028686235 -0.010680393 0.052072547 0.11687187 0.022619016 0.008423028 -0.0489701
-0.027848914 0.07328823 -0.113273755 0.06621923 0.0060696043 -0.0041608005 -0.00066534965 -0.015982311
-0.064060315 -0.019409565 0.01732625 0.03598496 0.02590085 0.027443778 0.02927094 -0.0016970987
0.02355044 0.121022075 0.05813628 -0.030145898 0.036391743 0.030078394 -0.063511096 -0.0222422
-0.030585391 0.050850395 0.010482794 0.0818009 -0.02762341 0.030394798 0.065763175 0.011826968
0.0034076688 -0.04192846 0.072549544 0.031514432 -0.043127418 0.0315488 -0.0060317554 0.03578623
0.04807372 -0.098027736 0.0542579 -0.022269454 -0.07885337 0.049764816 0.006772578 0.017130282
-0.042453077 -0.0585673 -0.013552053 0.04446372 -0.0470064 0.082298286 0.092557184 0.022324936
-0.016961385 -0.025226211 -0.05797396 0.014485532 -0.0109764505 0.14145581 -0.0019458693 -0.04906248
0.108070694 0.03271893 -0.025027553 -0.034457833 0.08294755 0.00081473263 -0.0020406144 -0.028642377
0.131097 -0.04869612 0.022196362 0.005612374 0.011795646 0.059352543 -0.00037128758 0.073568255
0.11624613 0.045322526 0.11926881 0.02810898 -0.018502071 -0.052879237 0.0042773983 0.034033567
0.07733253 -0.020764016 0.022774657 0.054583643 -0.029110285 0.012502314 -0.07777393 -0.0425342
-0.018562887 -0.00825749 0.070478916 0.055663753 -0.095979676 0.13055031 0.1158172 0.114894
00000000: 3fac 983d 5ccd c83a 5df3 2d3d 0e91 19bd
00000010: be33 23bb 78b0 94bb 568d 14bc 8d65 a13d
00000020: 522d eabc d81a db3c 42d1 8d3d 60f6 fd3b
00000030: 1bb7 253e df33 fd3c f6e7 ab3c c301 88bc
00000040: 9c6d e73c 9685 873d e06b 9539 4f9e 493d
00000050: 62ab cb3d 3787 1e3d 1abe b63c af0f da3c
00000060: 0e63 9a3d 7675 023d 0709 cebd c185 c03d
00000070: 32c1 3fbd 7f71 60bd 24c2 a93d c865 bc3d
00000080: 5a51 2f3d 5a8e a53d 8276 abbd 934a f43c
00000090: 1908 803c ace5 b73d 7280 913d 9299 8a3d
000000a0: abfd 913d 2a41 ca3d b2e9 e7bc 37d0 87bd
000000b0: 8a5e 97bd 71fc 763d ae8b 11bd fb2e f43c
000000c0: 390d a93d 416e 9b3a 250a 06bc 6175 033e
000000d0: 80cc 993c 027c 5f3d eb4a 953d cbc6 f13c
000000e0: 000e cfbb aae2 37ba 0a20 c33d 7276 573c
000000f0: d421 043d a2e9 0cbd abd1 a23d a21c 1e3d
00000100: f3f3 a2bd dadf 813d a6ea 6a3d ee55 8fbc
00000110: 61d4 bb3d 47a7 a2bc 5477 0a3d 3dd2 8dbd
00000120: 9953 013e c730 373c eef6 d13d 24eb 74bb
00000130: 54dc eabc 0e04 84bd 4416 713c e642 af3d
00000140: d0bd a73d 3a66 9a3d 4c42 603c 8530 5cbc
00000150: ba89 dd3b 8640 923d 91c8 2ebb 0b77 81bc
00000160: 3ada 963d 9ffe 81bb 2377 dc3c 5599 933d
00000170: 6219 f03c 424c 79bd b288 853d 777b 9cbd
00000180: 80cd 61bb 688b 8d3b d838 1dbd 1a87 3e3c
00000190: c4ed 9f3d 2a85 4dbb c231 d2bd 739a 09be
000001a0: 4a7c 993c e506 943d 45c0 22bd 4d1e efbc
000001b0: 099a cc3c bf60 fcbb c823 84bb 70c1 5b3d
000001c0: 0dc6 493d d335 923d b163 0d3d 5015 7d3d
000001d0: 89aa 80bd 5b33 57bb 7ae6 7dbd 4e28 343d
000001e0: fa95 48bd dae1 c8bd 332c c53c b968 1f3d
000001f0: db55 223d 40b4 c43d b900 033e 8abf 7cbd
00000200: ea13 c0bc 19b0 9dbc 7dc8 493b 2fc3 183d
00000210: 5dac fe3c cc49 953d 633a 2c3d 3a17 c5bb
00000220: 5339 743b 8a06 b3bd afe0 833d bf32 cf3b
00000230: 8c71 ab3b 3277 3b3d 9cf8 b83d 9cfe d5bc
00000240: 4de0 66bc 65ff eabc d1fc 2ebc 064a 553d
00000250: 855a ef3d 844b b93c bd00 0a3c df94 48bd
00000260: 6823 e4bc 2418 963d 12fc e7bd f39d 873d
00000270: 88e3 c63b 5357 88bb dc6a 2eba 56ed 82bc
00000280: 0e32 83bd cf00 9fbc c8ef 8d3c f764 133d
00000290: 052e d43c c6d1 e03c 9cc9 ef3c 2f71 deba
000002a0: daec c03c 6cda f73d 4f20 6e3d 88f4 f6bc
000002b0: 820f 153d f766 f63c 1b12 82bd 4635 b6bc
000002c0: 378e fabc 8148 503d 06c0 2b3c 3b87 a73d
000002d0: 7d4a e2bc 83fe f83c d8ae 863d e6c5 413c
000002e0: 3253 5f3b 2dbd 2bbd db94 943d 4715 013d
000002f0: 60a6 30bd 5139 013d 08a6 c5bb 9594 123d
00000300: f3e8 443d c4c2 c8bd 883d 5e3d 6e6e b6bc
00000310: e07d a1bd 31d6 4b3d 81ec dd3b ce54 8c3c
00000320: 47e3 2dbd 44e4 6fbd 6e09 5ebc 971f 363d
00000330: c889 40bd 018c a83d 9f8e bd3d c9e2 b63c
00000340: 9af2 8abc 33a7 cebc 1a76 6dbd ba54 6d3c
00000350: 92d6 33bc cbd9 103e 8a0c ffba bdf5 48bd
00000360: 2b54 dd3d 4904 063d 9506 cdbc a823 0dbd
00000370: 68e0 a93d c893 553a d4bb 05bb 6ba3 eabc
00000380: 4b3e 063e 9575 47bd 25d5 b53c 01e8 b73b
00000390: 8642 413c a71b 733d 60a9 c2b9 f4aa 963d
000003a0: 7312 ee3d 1da4 393d 3543 f43d ce44 e63c
000003b0: a891 97bc e697 58bd 6b29 8c3b c866 0b3d
000003c0: 8460 9e3d 4c19 aabc eb91 ba3c 1993 5f3d
000003d0: b178 eebc 81d6 4c3c f047 9fbd 5738 2ebd
000003e0: 3211 98bc 6c4a 07bc 4057 903d adff 633d
000003f0: fe90 c4bd fbae 053e 9131 ed3d 8c4d eb3d

6.bias f4 [100]
9.122993e-06 8.5171036e-05 3.5872232e-05 7.471595e-05 6.9874695e-05 -3.364871e-06 1.06903735e-05 -4.0174367e-05
5.06277e-06 -7.849624e-05 -2.4394376e-05 -4.951723e-05 -8.927535e-06 1.675364e-05 -5.154264e-05 4.457272e-05
-6.599023e-05 -5.1131323e-05 1.3650329e-05 4.7766384e-06 6.2119856e-05 1.08511514e-07 2.822506e-05 1.1381215e-06
-6.071009e-05 -2.8729573e-05 2.2892305e-05 6.7408124e-20 4.02039e-05 2.7070246e-08 3.7089364e-06 4.8256516e-05
1.4997956e-06 1.0636852e-05 0.00012599122 1.7658759e-06 2.1552984e-05 -6.814643e-05 4.8946702e-05 -7.227124e-05
-2.663782e-05 -2.6214093e-05 -1.1467895e-05 6.730089e-05 -1.10414e-05 9.178668e-06 1.0722899e-05 5.050323e-05
-2.4896448e-05 -6.225416e-05 1.7602641e-06 9.791604e-06 0.0001329855 3.0149598e-05 -2.8063145e-05 -7.228496e-05
-8.1319595e-06 3.4367615e-12 -0.000111186084 3.3405126e-05 0.00013472384 8.875835e-05 3.6044516e-06 9.705447e-06
-2.5751528e-05 -4.823986e-06 -2.3177336e-05 -1.387711e-05 -2.9038378e-05 5.559294e-05 -1.9740026e-05 0.00010096051
3.719326e-07 3.3644552e-05 -1.24534845e-05 -3.256678e-05 2.686713e-05 6.7216584e-05 2.137836e-05 8.6119864e-05
-1.3350579e-05 5.0074363e-05 -1.7838238e-05 8.846445e-05 -1.38889845e-05 6.986385e-05 9.519867e-05 -2.0376548e-05
-1.5385679e-06 -9.8685356e-05 -2.9294983e-05 -4.863232e-05 -6.350507e-05 -3.4098208e-05 -8.765988e-05 4.2294665e-05
2.0339573e-06 -2.0215319e-05 -3.898957e-05 -4.063224e-05
00000000: f50e 1937 da9d b238 8475 1638 d2b0 9c38
00000010: b189 9238 0bd0 61b6 ce5a 3337 e680 28b8
00000020: dde0 a936 599e a4b8 86a2 ccb7 b9b0 4fb8
00000030: 79c7 15b7 2b8a 8c37 7d2f 58b8 98f3 3a38
00000040: 3c64 8ab8 d775 56b8 b703 6537 0347 a036
00000050: 5846 8238 d606 e933 dbc4 ec37 8fc1 9835
00000060: f6a2 7eb8 4a00 f1b7 da08 c037 b629 9f1f
00000070: 9ca0 2838 1a88 e832 0be7 7836 0a67 4a38
00000080: 964c c935 ee74 3237 831c 0439 0903 ed35
00000090: aecc b437 d6e9 8eb8 1f4c 4d38 5490 97b8
000000a0: 4874 dfb7 56e6 dbb7 3c66 40b7 e423 8d38
000000b0: 743e 39b7 14fe 1937 80e6 3337 6ed3 5338
000000c0: b7d8 d0b7 738e 82b8 3742 ec35 9e46 2437
000000d0: 0672 0b39 c5e9 fc37 2569 ebb7 b197 97b8
000000e0: 806e 08b7 31d7 712c 932c e9b8 7b1c 0c38
000000f0: a844 0d39 c723 ba38 02e4 7136 94d4 2237
00000100: fc04 d8b7 b9dd a1b6 f36c c2b7 bcd1 68b7
00000110: 7197 f3b7 772c 6938 6297 a5b7 c3ba d338
00000120: 07ae c734 901d 0d38 4fef 50b7 5098 08b8
00000130: b960 e137 a1f6 8c38 ae55 b337 409b b438
00000140: 4dfc 5fb7 f006 5238 53a3 95b7 fd85 b938
00000150: bc04 69b7 de83 9238 66a5 c738 4eee aab7
00000160: ca80 ceb5 4cf5 ceb8 7fbe f5b7 8efa 4bb8
00000170: 062e 85b8 ac04 0fb8 0ad6 b7b8 8d65 3138
00000180: 1f7f 0836 1194 a9b7 bb88 23b8 896c 2ab8

6.weight f4 [100, 100]
0.050919767 -0.018010957 0.10350604 0.08573143 -0.0682326 0.072877176 0.027953073 -0.063534044
0.13934512 -0.032276828 0.011307375 0.067164406 0.02969725 0.055798903 -0.008442407 1.5450665e-14
-0.0032961506 -0.04893484 0.019008256 0.0024483341 0.03748129 -0.075564586 0.09925884 -0.044944897
-0.04223456 -0.042431314 -0.03540073 0.096250325 -0.013780028 0.032226495 -0.00052535336 0.048040003
-0.021727674 0.035658363 -0.03662948 -0.066105366 0.046387073 0.0424049 0.05660666 0.048869725
0.0017178936 -0.07643188 -0.085665815 0.04858601 -0.07672111 0.0053478563 0.08472596 0.027238576
0.09967774 -0.1306469 -0.024023343 -0.016199129 -0.048080117 -0.025330119 -0.05446693 0.067381814
-0.00866919 0.0033503172 -0.06881334 0.049487073 -0.031473007 0.026365396 -0.018979227 -0.024734765
0.062408328 0.03332933 0.12943156 -0.016378202 0.009862066 -0.065118425 -1.3049795e-13 -0.008435499
0.026889501 0.05135571 0.027175464 0.12215333 -0.03039821 0.0254877 -0.031591557 0.008371142
0.024131931 0.0159655 0.06531712 -0.042307798 -0.08018161 0.07025858 -0.026218183 -0.08542579
-0.04302592 0.01596296 -0.037497774 0.061261997 0.03178482 0.02994574 0.027665498 -0.006344214
-0.005404979 -0.043749806 -0.09933042 0.14017157 0.07237446 -0.01849259 0.14728805 -0.010461369
-0.097474866 -0.044258904 -0.019937174 0.24160351 -0.071814165 0.024976458 0.046263054 0.038438093
-0.029139224 -0.04606331 -0.0040824767 1.4459526e-08 0.20732425 -0.05202549 0.10356055 -0.03152289
-0.05587329 0.10853116 0.059904184 -0.04242547 -0.074350074 0.054830525 -0.12065582 -0.17380624
0.0476244 -0.0077510406 -0.042190347 0.022102846 0.045913156 0.012996591 0.022779753 -0.060639586
-0.1027921 -0.054813877 -0.013307925 0.05680054 0.112823114 0.06664691 0.11025001 0.07377823
-0.008761519 -0.04634288 0.017169274 0.021361165 -0.041126788 0.06775677 -0.034458507 -0.013184479
0.021406231 -0.07019196 0.097238906 -0.06795431 -0.10691175 0.14564852 0.12056804 0.01379862
0.00551354 -0.064182065 0.19291776 -0.044285137 -0.01990426 -0.109740645 -0.018930623 0.111396916
0.117157646 0.0047385944 4.5771355e-11 -0.07285321 0.06491547 -0.05568576 0.013505279 0.0039914753
-0.0730465 -0.0192654 0.11572536 -0.007766192 0.06916619 -0.10364377 -0.023784457 -0.013135808
0.0901283 -0.034126148 0.067195095 -0.10916263 0.26654583 -0.02261052 0.05680507 0.009644571
-0.050855 -0.11619969 0.115993984 0.06748311 0.05914399 -0.109778255 -0.08717012 0.03261848
0.040414542 -0.084919594 -0.0908523 0.023050219 -0.097756565 0.025214668 -0.07376268 0.004694269
-0.078464575 0.05659644 0.027019884 0.06666806 0.009321302 0.0541458 -0.04977328 -5.0289117e-12
0.08085285 -0.078652896 0.0123874545 0.09081712 0.002367528 -0.117773406 0.115652695 0.0029390105
0.025981056 0.036005434 0.1084924 -0.078704335 0.059518073 0.041040473 0.106569424 -0.008939941
-0.019589795 0.0147454 0.1295391 -0.04012087 0.08811017 0.076477885 -0.12994798 -0.026012069
0.081250295 -0.07756562 -0.08238388 -0.019761354 0.11591072 -0.04852985 0.010515935 -0.0097622955
-0.02993306 -0.055264123 0.044495832 -0.030385897 -0.082264334 -0.012381876 0.065800965 0.028040146
00000000: 3f91 503d b78b 93bc fafa d33d f693 af3d
00000010: 89bd 8bbd a140 953d d8fd e43c 231e 82bd
00000020: 7db0 0e3e b534 04bd 9142 393c 7e8d 893d
00000030: a647 f33c 648d 643d 0552 0abc cf2a 8b28
00000040: 3b04 58bb e66f 48bd 34b7 9b3c 3b74 203b
00000050: fb85 193d 9bc1 9abd 3848 cb3d 2418 38bd
00000060: 25fe 2cbd 75cc 2dbd 5b00 11bd e41e c53d
00000070: a0c5 61bc eeff 033d deb7 09ba 98c5 443d
00000080: 3cfe b1bc 810e 123d cb08 16bd 4062 87bd
00000090: 5f00 3e3d c3b0 2d3d 63dc 673d 9f2b 483d
000000a0: f22a e13a 5188 9cbd 8f71 afbd 2002 473d
000000b0: f51f 9dbd 123d af3b ce84 ad3d 6f23 df3c
000000c0: d823 cc3d 4dc8 05be 9acc c4bc 09b4 84bc
000000d0: a8ef 44bd 1c81 cfbc b718 5fbd 7aff 893d
000000e0: 3809 0ebc ff90 5b3b 02ee 8cbd f5b2 4a3d
000000f0: d7e9 00bd 3efc d73c 537a 9bbc 90a0 cabc
00000100: e09f 7f3d 5684 083d b589 043e 942b 86bc
00000110: 8194 213c cf5c 85bd 79ed 12aa 0c35 0abc
00000120: 5f47 dc3c 5d5a 523d 149f de3c 862b fa3d
00000130: ab05 f9bc 95cb d03c 2666 01bd 1d27 093c
00000140: 54b0 c53c 15ca 823c fbc4 853d f14a 2dbd
00000150: 4236 a4bd bbe3 8f3d 84c7 d6bc b7f3 aebd
00000160: f23b 30bd c1c4 823c 4497 19bd dced 7a3d
00000170: cd30 023d c550 f53c c1a2 e23c 20e3 cfbb
00000180: 401c b1bb ff32 33bd bf6d cbbd 2389 0f3e
00000190: 1039 943d c67d 97bc aed2 163e 2966 2bbc
000001a0: e7a0 c7bd d348 35bd 4953 a3bc e966 773e
000001b0: 4e13 93bd 6e9b cc3c 547e 3d3d 4371 1d3d
000001c0: 62b5 eebc e2ac 3cbd 4cc6 85bb ab69 7832
000001d0: cf4c 543e ae18 55bd 8e17 d43d 251e 01bd
000001e0: 64db 64bd 9645 de3d 175e 753d 54c6 2dbd
000001f0: da44 98bd f995 603d 661a f7bd 43fa 31be
00000200: ce11 433d 71fc fdbb c9cf 2cbd 0711 b53c
00000210: 6f0f 3c3d a7ef 543c 9b9c ba3c 3761 78bd
00000220: aa84 d2bd 8484 60bd 7c09 5abc afa7 683d
00000230: ce0f e73d 2d7e 883d c2ca e13d 0a19 973d
00000240: 798c 0fbc 08d2 3dbd 94a6 8c3c 9cfd ae3c
00000250: 9074 28bd 10c4 8a3d 5d24 0dbd b703 58bc
00000260: 1f5c af3c cdc0 8fbd 3125 c73d a12b 8bbd
00000270: 8cf4 dabd e324 153e 60ec f63d 9b13 623c
00000280: edaa b43b e371 83bd 3c8c 453e 5564 35bd
00000290: 420e a3bc b4bf e0bd 6514 9bbc 1124 e43d
000002a0: 59f0 ef3d 3646 9b3b f74d 492e 1034 95bd
000002b0: 67f2 843d c016 64bd 3f45 5d3c ecca 823b
000002c0: 6799 95bd 79d2 9dbc 6b01 ed3d 8a7b febb
000002d0: 01a7 8d3d 2f43 d4bd 9fd7 c2bc 9237 57bc
000002e0: 3095 b83d dcc7 0bbd 959d 893d a890 dfbd
000002f0: b278 883e b239 b9bc 6fac 683d 4304 1e3c
00000300: 554d 50bd 1afa edbd 418e ed3d 9634 8a3d
00000310: f840 723d 6cd3 e0bd 3f86 b2bd f59a 053d
00000320: b889 253d 53ea adbd c510 babd d0d3 bc3c
00000330: 9834 c8bd fe8e ce3c e310 97bd 62d2 993b
00000340: 09b2 a0bd abd1 673d ce58 dd3c 4489 883d
00000350: 60b8 183c fdc7 5d3d 11df 4bbd 69f0 b0ac
00000360: 2e96 a53d c514 a1bd c0f4 4a3c 54fe b93d
00000370: 8728 1b3b 2f33 f1bd 52db ec3d 6a9c 403b
00000380: 39d6 d43c 6f7a 133d 4331 de3d bd2f a1bd
00000390: 39c9 733d 0e1a 283d 1241 da3d d578 12bc
000003a0: c77a a0bc b196 713c e6a5 043e c855 24bd
000003b0: 1b73 b43d 70a0 9c3d 1511 05be 4317 d5bc
000003c0: 8e66 a63d b9da 9ebd e1b8 a8bd 90e2 a1bc
000003d0: 9962 ed3d 3cc7 46bd 074b 2c3c 09f2 1fbc
000003e0: 2d36 f5bc a25c 62bd 4341 363d d8eb f8bc
000003f0: 347a a8bd 5add 4abc a8c2 863d 73b4 e53c

8.bias f4 [100]
6.7831934e-05 3.0281642e-05 -4.8041562e-05 2.6065808e-15 4.3309912e-05 6.695283e-05 -8.450416e-05 6.453366e-05
-4.4564226e-06 -1.8219589e-05 -5.4482312e-05 7.640969e-05 4.6681922e-05 5.9278387e-05 6.038128e-05 5.078604e-09
1.8930375e-06 6.028296e-05 -7.0638256e-05 -1.0186635e-12 -9.659071e-07 3.5628265e-05 -4.7951835e-05 5.2393834e-06
5.1527757e-05 -4.1623858e-05 4.7977835e-05 2.7656904e-05 -3.1764594e-05 -6.854071e-05 -2.7189533e-05 -1.1460759e-05
-1.5924214e-05 -4.1987028e-06 -7.890332e-06 1.6803768e-05 6.185902e-05 -3.5609075e-05 -6.643434e-05 2.5266689e-05
3.359545e-05 3.9915474e-05 -7.5055573e-06 1.2506211e-05 2.2681475e-05 -4.020232e-05 4.255415e-05 4.866367e-05
-2.6425345e-05 -4.0027888e-05 2.3634562e-05 1.5065421e-15 6.197632e-05 -2.950786e-06 2.040471e-06 1.5213088e-05
3.3438432e-35 4.6492026e-24 -5.309643e-05 3.6059933e-05 -2.9543398e-05 2.104666e-05 -8.105861e-05 2.716567e-19
-3.0338703e-07 -1.0623953e-05 -2.7840098e-05 1.6610818e-05 2.9276947e-05 1.9109686e-05 1.5001592e-05 -3.446984e-05
7.046331e-05 3.2087806e-05 5.1479306e-05 -3.073191e-05 -8.9737805e-05 -1.3176421e-05 -3.2033426e-05 -4.9943133e-05
-3.474113e-05 -1.3361428e-05 -7.1175375e-05 -3.2690477e-07 3.7367356e-06 -6.8581845e-05 -1.7014307e-05 5.131684e-05
-4.4969747e-05 -7.040412e-24 5.499326e-06 1.2896293e-05 -3.1961008e-05 9.3149516e-05 2.1055632e-05 6.8471534e-05
3.7048052e-05 2.256092e-05 -4.914517e-05 -3.9064093e-05
00000000: fe40 8e38 5505 fe37 3c80 49b8 eed2 3b27
00000010: aaa7 3538 0769 8c38 d337 b1b8 3f56 8738
00000020: 6188 95b6 45d6 98b7 f083 64b8 243e a038
00000030: 55cc 4338 afa1 7838 e841 7d38 e07f ae31
00000040: 4614 fe35 56d8 7c38 a023 94b8 385d 8fab
00000050: 51a4 81b5 8f6f 1538 e41f 49b8 f6cd af36
00000060: 821f 5838 4795 2eb8 cf3b 4938 c000 e837
00000070: f93a 05b8 83bd 8fb8 1415 e4b7 9647 40b7
00000080: fd94 85b7 95e2 8cb6 b860 04b7 d1f5 8c37
00000090: 4fba 8138 f45a 15b8 aa52 8bb8 cdf3 d337
000000a0: d7e8 0c38 ea6a 2738 3fd8 fbb6 c4d1 5137
000000b0: 1944 be37 ea9e 28b8 2c7c 3238 381c 4c38
000000c0: ffab ddb7 9ee3 27b8 d642 c637 981d d926
000000d0: 49f9 8138 1e06 46b6 06ef 0836 b73b 7f37
000000e0: 09ca 3106 79db b318 dcb3 5eb8 0f3f 1738
000000f0: f7d3 f7b7 5c8d b037 03fe a9b8 9a5b a020
00000100: 32e1 a2b4 883d 32b7 288a e9b7 7657 8b37
00000110: c497 f537 bd4d a037 59af 7b37 b593 10b8
00000120: b4c5 9338 0596 0638 7ceb 5738 23e6 00b8
00000130: 9e31 bcb8 4c10 5db7 a15b 06b8 087a 51b8
00000140: 01b7 11b8 e52a 60b7 fd43 95b8 7381 afb4
00000150: a1c4 7a36 99d3 8fb8 f2b9 8eb7 0a3d 5738
00000160: e69d 3cb8 6e2e 0899 da86 b836 285d 5837
00000170: df0d 06b8 4459 c338 a0a0 b037 6098 8f38
00000180: 0b64 1b38 3541 bd37 3921 4eb8 c0d8 23b8
