test/eran_models/mnist_relu_6_100.onnx (onnx, 480907 bytes, 12 tensors)

10.bias f4 [100]
0.09888053 0.025688121 0.25832218 0.047234595 0.13489188 0.12415257 0.057206687 -0.048370186
0.062862635 0.15470171 0.2154191 0.17978445 0.13418034 0.23033476 0.18704388 0.137754
0.027096655 0.16877317 0.07210458 0.20542644 0.084872685 0.17127894 0.024004765 0.02819588
0.18674137 0.17893614 0.08824663 0.157877 0.107224904 0.026473466 0.14541213 0.084737726
-0.01663182 0.24011944 0.07022549 0.17028135 0.1693984 0.061639197 0.09790448 0.15197015
0.10894453 0.14925544 0.17164326 0.2902904 0.12652937 0.14313294 0.14742044 0.21777415
0.04504542 0.122660935 -0.0025215002 0.045614637 0.019492807 0.012747543 0.089751855 0.15327449
0.06436401 0.1105521 0.12521023 0.052051697 0.10870036 0.2508668 0.12081054 0.10985322
0.30260873 0.1636738 0.21817993 0.08532846 0.09872773 0.12979414 0.012330496 0.07926059
0.023990413 0.060632527 0.07570622 0.13742888 0.04194314 0.062277846 0.17886415 0.18025701
0.05009736 -0.01864358 0.16382389 0.13108063 0.06273612 0.065990314 0.015195651 0.13111332
0.099656224 0.1207705 0.08130927 0.21951969 0.06510909 0.14647214 0.025320364 0.1346464
0.040790286 0.055829685 0.10006112 0.09989718
00000000: e081 ca3d e56f d23c ce42 843e 1079 413d
00000010: 1921 0a3e b443 fe3d 8f51 6a3d d11f 46bd
00000020: 20be 803d 206a 1e3e d396 5c3e 6a19 383e
00000030: 9266 093e e0dc 6b3e 6e88 3f3e 620f 0d3e
00000040: cef9 dd3c e0d2 2c3e 91ab 933d 4f5b 523e
00000050: bbd1 ad3d bf63 2f3e a4a5 c43c 0cfb e63c
00000060: 2139 3f3e 093b 373e a6ba b43d 82aa 213e
00000070: bb98 db3d e2de d83c ebe6 143e f98a ad3d
00000080: 743f 88bc dfe1 753e 62d2 8f3d 3c5e 2e3e
00000090: c676 2d3e 6279 7c3d 2582 c83d 109e 1b3e
000000a0: 4f1e df3d 6bd6 183e 40c3 2f3e f1a0 943e
000000b0: ea90 013e 7191 123e 62f5 163e 3000 5f3e
000000c0: 8c81 383d a835 fb3d c13f 25bb 6ad6 3a3d
000000d0: 61af 9f3c 12db 503c d2cf b73d fdf3 1c3e
000000e0: 47d1 833d 2469 e23d 1c37 003e 2934 553d
000000f0: 4b9e de3d 9d71 803e 846b f73d bafa e03d
00000100: 88ef 9a3e 1b9a 273e 8f6a 5f3e b0c0 ae3d
00000110: c431 ca3d c1e8 043e d905 4a3c 6053 a23d
00000120: 8b87 c43c d059 783d dd0b 9b3d 28ba 0c3e
00000130: 92cc 2b3d 0e17 7f3d 2a28 373e 4b95 383e
00000140: e432 4d3d 6cba 98bc 73c1 273e 003a 063e
00000150: cb7b 803d ee25 873d 2ef7 783c 9242 063e
00000160: 9018 cc3d 8656 f73d 7985 a63d c5c9 603e
00000170: ea57 853d cbfc 153e a76c cf3c bfe0 093e
00000180: b713 273d abad 643d d8ec cc3d e596 cc3d

10.weight f4 [100, 100]
0.11035856 -0.0582019 -0.0853358 0.03519674 0.038383074 0.056290627 -0.1490533 -0.16800132
-0.011137962 0.109471224 -0.012589036 -0.13999408 -0.1484907 0.04528554 -0.0039550476 -0.14130905
-0.11597063 0.02628449 0.008083616 -0.14319982 0.01703641 0.02591065 -0.043997638 0.0073761465
0.026999233 -0.037374556 0.068709984 0.018144181 -0.048222553 -0.1654771 0.012967996 -0.041393273
0.07644759 -0.085199006 0.03933604 0.084434554 0.100445814 -0.09817999 0.019320864 -0.04014015
0.12681957 -0.11836292 0.010431498 0.053062286 -0.19319423 0.06908026 0.013130022 -0.06877128
-0.055772964 -0.16158593 0.08833551 -0.16686745 -0.0067307455 0.1653241 -0.007705761 -0.0047765383
0.04248912 0.035779107 0.13922478 0.19746388 0.016010366 -0.028257474 -0.04017766 0.06325854
0.09839033 0.026756192 -0.12731846 -0.011692672 -0.1479967 -0.12636447 0.210366 -0.048028372
-0.14513418 -0.04898571 -0.030991234 -0.038636114 0.03045186 -0.07411525 -0.11328223 0.046145715
0.187465 0.07061244 -0.01900842 -0.0015971202 -0.048853926 0.062911406 0.014138668 -0.0318277
0.038174745 0.050238132 0.106161416 -0.02960831 -0.11362865 -0.04007552 -0.057429366 -0.029456995
-0.1363062 -0.13625762 -0.13982406 0.05566646 -0.06300532 -0.21260783 -0.047722742 -0.13705945
0.04796989 -0.030575447 -0.020972803 -0.05301471 0.12527591 0.15769644 0.024952637 0.07288558
-0.11979277 0.11863962 -0.07111188 0.18671256 0.003701479 -0.011468034 -0.06064552 -0.0023066741
-0.087732784 -0.057440553 0.08263775 -0.15768656 -0.0036720324 0.10271515 0.042735778 -0.12175583
0.044240173 -0.02425184 -0.077988386 0.13354748 0.06969808 -0.0042796005 -0.06806712 -0.025660602
0.120350055 -0.048982948 0.16128916 0.1786053 -0.0455107 0.047998026 -0.09157946 -0.17803669
-0.13675225 0.05748687 -0.04070812 0.116629444 -0.06502156 -0.17004465 -0.20708898 0.19954589
0.09061074 0.1700881 -0.029885247 -0.14550042 0.1568805 0.22668485 0.19461626 0.04865821
0.024952047 -0.016465448 -0.0060511916 -0.024578698 -0.07449723 0.18393932 -0.008773366 -0.12376878
0.09253932 0.051802084 0.15921311 0.02904655 -0.0846483 0.07542086 -0.092703074 -0.05508342
-0.15061413 0.12544371 -0.11530252 -0.0034489569 0.14567335 -0.12158655 -0.03968015 0.029294007
-0.07942862 -0.06577016 -0.112800255 -0.06815056 -0.14505965 -0.060121443 0.03568931 0.09652567
0.0938897 0.08607083 0.18192929 0.02916784 0.22816995 0.045079254 -0.07224815 -0.09910396
-0.071362585 -0.081548706 0.28206006 0.06499807 -0.07820987 0.13134933 0.0036548926 0.009795625
-0.10336697 0.19839494 0.034353092 -0.035512693 0.41620246 0.04116368 0.21194145 0.019633224
0.108972885 0.17673285 -0.010139799 -0.028909674 0.10673497 0.1750979 -0.023738729 0.19804336
0.17511088 -0.20925778 0.07034037 -0.066966325 -0.051160756 -0.047935463 -0.09805012 -0.06205508
-0.118931144 0.015547104 -0.1978598 -0.008196074 -0.04192453 -0.21806492 -0.10532175 -0.0631104
-0.004750134 0.084336154 -0.043987766 0.14671431 0.16378197 -0.069470674 -0.10870465 -0.0016080003
-0.096663244 0.15370888 -0.06149038 -0.116777614 -0.064271495 0.1295525 -0.0981008 0.07860785
00000000: ab03 e23d 1e65 6ebd 89c4 aebd 752a 103d
00000010: 9237 1d3d 0091 663d 6ea1 18be 8a08 2cbe
00000020: 007c 36bc 7332 e03d 3e42 4ebc 9c5a 0fbe
00000030: f20d 18be 557d 393d 5899 81bb 52b3 10be
00000040: 0282 edbd 9252 d73c 2571 043c f9a2 12be
00000050: f18f 8b3c 9242 d43c de36 34bd 9ab3 f13b
00000060: 7f2d dd3c 1016 19bd d2b7 8c3d 1ba3 943c
00000070: 0385 45bd d472 29be b877 543c fe8b 29bd
00000080: 8e90 9c3d d17c aebd d41e 213d 06ec ac3d
00000090: 89b6 cd3d 9712 c9bd ca46 9e3c ff69 24bd
000000a0: fddc 013e 4268 f2bd e0e8 2a3c d757 593d
000000b0: b5d4 45be f479 8d3d 4e1f 573c f5d7 8cbd
000000c0: 3172 64bd c876 25be 3fe9 b43d 4ddf 2abe
000000d0: 968d dcbb b94a 293e 9c80 fcbb 8284 9cbb
000000e0: 1209 2e3d 1d8d 123d f190 0e3e f933 4a3e
000000f0: 2c28 833c 387c e7bc 5491 24bd b28d 813d
00000100: df80 c93d cd2f db3c c55f 02be 9f92 3fbc
00000110: 728c 17be b065 01be 2f6a 573e 66b9 44bd
00000120: 0e9e 14be 3da5 48bd 54e1 fdbc e740 1ebd
00000130: 2e76 f93c bcc9 97bd 8400 e8bd 4a03 3d3d
00000140: d3f6 3f3e 419d 903d 8cb7 9bbc 7656 d1ba
00000150: 0e1b 48bd b2d7 803d dfa5 673c c35d 02bd
00000160: 1f5d 1c3d 80c6 4d3d 286b d93d 208d f2bc
00000170: 23b6 e8bd 3a26 24bd 0e3b 6bbd cc4f f1bc
00000180: da93 0bbe 1e87 0bbe 0a2e 0fbe 8402 643d
00000190: ef08 81bd deb5 59be ec78 43bd 5059 0cbe
000001a0: 137c 443d 5c79 fabc 28cf abbc f425 59bd
000001b0: 5448 003e 2d7b 213e 7969 cc3c 0945 953d
000001c0: e955 f5bd 54f9 f23d 1ba3 91bd 9431 3f3e
000001d0: 8394 723b 6ce4 3bbc 7067 78bd 922b 17bb
000001e0: 3fad b3bd c946 6bbd fb3d a93d 9678 21be
000001f0: 7ba6 70bb 525c d23d b60b 2f3d 1f5b f9bd
00000200: 2f35 353d cbab c6bc 60b8 9fbd acc0 083e
00000210: debd 8e3d e43b 8cbb c666 8bbd 2f36 d2bc
00000220: 177a f63d 58a2 48bd fc28 253e 4fe4 363e
00000230: 6e69 3abd 9499 443d 038e bbbd 404f 36be
00000240: c808 0cbe 5a77 6b3d 8fbd 26bd 6bdb ee3d
00000250: 062a 85bd 2f20 2ebe 220f 54be c255 4c3e
00000260: 2092 b93d 932b 2e3e e8d1 f4bc 10fe 14be
00000270: 48a5 203e 1320 683e 7c49 473e d54d 473d
00000280: 3c68 cc3c 8ce2 86bc 1349 c6bb 4459 c9bc
00000290: 0192 98bd 975a 3c3e 2abe 0fbc 7c7a fdbd
000002a0: 4185 bd3d 6c2e 543d c308 233e 08f3 ed3c
000002b0: 175c adbd 4076 9a3d 1cdb bdbd 279f 61bd
000002c0: 973a 1abe 5174 003e ba23 ecbd e507 62bb
000002d0: 652b 153e 5e02 f9bd a787 22bd fcf9 ef3c
000002e0: 79ab a2bd 81b2 86bd d203 e7bd 8592 8bbd
000002f0: 848a 14be e741 76bd f42e 123d 40af c53d
00000300: 3e49 c03d e745 b03d ac4b 3a3e 65f1 ee3c
00000310: 62a5 693e 06a5 383d d7f6 93bd 04f7 cabd
00000320: 8c26 92bd 0203 a7bd 2d6a 903e b51d 853d
00000330: 7f2c a0bd 7080 063e ec86 6f3b d47d 203c
00000340: 10b2 d3bd 0b28 4b3e d4b5 0c3d c275 11bd
00000350: 7d18 d53e 3f9b 283d 2e07 593e dbd5 a03c
00000360: 2d2d df3d 75f9 343e 6621 26bc fbd3 ecbc
00000370: dd97 da3d dd4c 333e b977 c2bc e1cb 4a3e
00000380: 4450 333e ac47 56be 9d0e 903d a425 89bd
00000390: f18d 51bd fa57 44bd 80ce c8bd 782d 7ebd
000003a0: 2c92 f3bd 48b9 7e3c c29b 4abe d348 06bc
000003b0: 0eb9 2bbd 694c 5fbe eeb2 d7bd 0740 81bd
000003c0: 03a7 9bbb 6fb8 ac3d 842c 34bd 473c 163e
000003d0: 76b6 273e a446 8ebd 8ba0 debd 89c3 d2ba
000003e0: 61f7 c5bd dc65 1d3e 56dd 7bbd 1a29 efbd
000003f0: c6a0 83bd 69a9 043e 12e9 c8bd 27fd a03d

12.bias f4 [10]
0.13402697 -0.29416335 -0.19551803 0.3549909 -0.0102571985 0.5310516 -0.23387894 -0.007762361
0.43051395 0.2909965
00000000: 5e3e 093e 949c 96be e135 48be 5ec1 b53e
00000010: cf0d 28bc fff2 073f f67d 6fbe 675b febb
00000020: 536c dc3e 7efd 943e

12.weight f4 [10, 100]
0.098733924 -0.20219658 0.65573585 0.048956905 -0.26294836 0.05023804 -0.14872272 -0.024922922
-0.12569815 -0.1539935 -0.1473028 0.23483501 -0.06186767 0.20027436 0.017098583 0.047836147
-0.14450382 0.19849513 -0.20735984 -0.039179187 -0.11753652 -0.18903872 -0.072444975 0.06952479
0.07659504 -0.19587661 0.08526344 0.026932582 -0.022737626 0.12014823 0.07059141 0.021408955
0.029473465 -0.38241416 0.3594577 -0.14628105 0.34890744 0.0969108 -0.39075604 -0.017424136
-0.0019239355 0.16317281 0.07196204 0.076975524 -0.14828749 0.261284 -0.017507328 -0.08694582
0.06396877 0.19948335 0.033165243 0.12931295 0.0619655 -0.23831467 -0.0883024 0.10175143
-0.20874153 0.27237812 -0.1810275 -0.096985295 -0.20888874 -0.21375854 -0.028631622 -0.092193715
-0.034343246 -0.0968126 -0.056615453 -0.04843211 -0.162222 0.0048044445 0.17730165 -0.20850886
0.12996154 -0.09032509 -0.06885403 -0.005875916 -0.1561399 0.03179165 -0.017103078 -0.07340098
-0.043147963 0.19713244 -0.050797116 -0.033717524 0.067710936 -0.017079469 0.10307164 -0.100224964
-0.07732197 0.0405632 -0.21476553 0.0019522534 0.14838728 -0.08190115 0.0011894505 -0.20604958
0.015928196 0.015688946 -0.032186147 0.12516907 0.07264906 0.24235427 -0.50154597 -0.19535707
0.17490163 0.06927233 -0.17421156 -0.110321075 0.15565802 -0.12411102 0.17904547 -0.28513268
-0.059445698 -0.13195951 -0.014238443 -0.111589424 0.03323103 -0.17655759 -0.13909934 -0.061112452
0.31349087 0.4078942 0.2589007 0.08263042 -0.34642595 -0.19215266 -0.0120187905 -0.226787
0.12900698 0.14681338 -0.16121279 -0.07666187 -0.0151330065 0.12650865 -0.24305631 -0.048901983
-0.018327465 -0.061179895 0.31301188 -0.04299326 -0.15655327 0.05693562 -0.07658446 -0.24817199
-0.21161784 -0.071129434 0.16548151 -0.087695815 0.058153637 -0.27459413 0.17204006 -0.19371058
0.36351243 0.028841414 0.08395492 0.0432216 0.36705363 0.00263373 -0.3257531 0.054926492
-0.039286286 -0.19659008 0.12296297 -0.15817481 -0.24724098 0.20436472 0.15459041 -0.26839837
-0.053321768 -0.22152174 -0.0012526914 -0.01461592 0.15360948 0.058036916 -0.11570858 0.015544001
0.25742286 0.003802377 -0.14321075 -0.16738743 -0.041223265 -0.043308854 0.14562342 0.06496809
0.11773048 0.04462315 -0.094147556 -0.19161871 0.019152548 0.2701051 -0.106654115 -0.09751864
0.3567409 0.19652976 0.19011062 0.05376581 0.1665357 -0.11367305 0.09167732 -0.10150758
0.115330085 0.34751558 0.026189385 -0.055572093 0.2857994 -0.0814166 0.14924878 0.03282015
0.260388 0.15998961 -0.22492029 0.34547055 0.03103688 0.056892727 0.11976668 0.15071222
0.16557924 -0.13605753 0.10770237 -0.26847187 -0.07759094 0.29649413 0.025690684 0.25019354
-0.15928303 -0.07043975 0.027737861 0.098340854 0.041958857 0.060268816 0.16654032 -0.16935241
0.11608416 -0.15976863 -0.035909142 0.15898111 -0.11693868 -0.022882001 -0.092217654 -0.21093076
0.14597328 0.12878722 0.033940874 -0.2534706 0.31390294 0.022802865 -0.123744786 0.02147259
0.1881679 0.097114824 0.00906193 -0.07548917 0.053936876 0.21678962 0.16414873 -0.1222077
00000000: 0335 ca3d 9f0c 4fbe 4ede 273f 0987 483d
00000010: 2ba1 86be 67c6 4d3d c54a 18be 282b ccbc
00000020: 04b7 00be 79b0 1dbe 8cd6 16be 9778 703e
00000030: f468 7dbd b914 4d3e 5412 8c3c d6ef 433d
00000040: cff8 13be 4f42 4b3e 2356 54be 5b7a 20bd
00000050: fdb6 f0bd 5e93 41be 085e 94bd 0363 8e3d
00000060: dcdd 9c3d e193 48be 999e ae3d b8a1 dc3c
00000070: 4244 babc 4610 f63d 3b92 903d d561 af3c
00000080: 5672 f13c cacb c3be d70a b83e b3ca 15be
00000090: ffa3 b23e 2b79 c63d 2d11 c8be 10bd 8ebc
000000a0: 902c fcba c616 273e d660 933d 58a5 9d3d
000000b0: add8 17be 04c7 853e 876b 8fbc a610 b2bd
000000c0: 0f02 833d 5d45 4c3e 47d8 073d 9d6a 043e
000000d0: 89cf 7d3d c308 74be e4d7 b4bd 0e63 d03d
000000e0: 57c0 55be 2575 8b3e 465f 39be 3aa0 c6bd
000000f0: eee6 55be 85e3 5abe dd8c eabc 0fd0 bcbd
00000100: 81ab 0cbd af45 c6bd 9be5 67bd c060 46bd
00000110: 861d 26be 9a6e 9d3b 908e 353e 5983 55be
00000120: a314 053e 5cfc b8bd 5703 8dbd c28a c0bb
00000130: 23e3 1fbe f637 023d c11b 8cbc 4153 96bd
00000140: ebbb 30bd 16dd 493e a310 50bd 631b 0abd
00000150: 08ac 8a3d 3eea 8bbc 3917 d33d bf42 cdbd
00000160: fb5a 9ebd 9925 263d 7feb 5bbe c1e2 ff3a
00000170: d6f2 173e cabb a7bd 56e7 9b3a a9fe 52be
00000180: d97b 823c 1b86 803c 9fd5 03bd 522c 003e
00000190: 08c9 943d b82b 783e 5165 00bf af0b 48be
000001a0: 6a19 333e a7de 8d3d 8464 32be 04f0 e1bd
000001b0: d164 1f3e eb2d febd b257 373e e9fc 91be
000001c0: 557d 73bd 6520 07be 5c48 69bc ff88 e4bd
000001d0: 431d 083d 83cb 34be 0f70 0ebe 0d51 7abd
000001e0: e081 a03e 82d7 d03e a28e 843e 233a a93d
000001f0: be5e b1be abc3 44be 76ea 44bc da3a 68be
00000200: 681a 043e 3f56 163e f714 25be e600 9dbd
00000210: 6ef0 77bc 7c8b 013e c1e3 78be 724d 48bd
00000220: 7b23 96bc c597 7abd 1843 a03e b319 30bd
00000230: 804f 20be 5335 693d 50d8 9cbd cc20 7ebe
00000240: 59b2 58be 4fac 91bd fc73 293e dd99 b3bd
00000250: 8232 6e3d 9a97 8cbe 452b 303e 115c 46be
00000260: 4d1e ba3e d444 ec3c 8ff0 ab3d 2209 313d
00000270: 74ee bb3e a89a 2c3b 1cc9 a6be 9afa 603d
00000280: a8ea 20bd e94e 49be 02d4 fb3d 94f8 21be
00000290: bd2c 7dbe fc44 513e f34c 1e3e 836b 89be
000002a0: ed67 5abd 98d6 62be 5931 a4ba 9d77 6fbc
000002b0: ce4b 1d3e 1eb8 6d3d 9ff8 ecbd 44ac 7e3c
000002c0: eecc 833e 4d31 793b d7a5 12be 9c67 2bbe
000002d0: bad9 28bd a064 31bd 4e1e 153e fd0d 853d
000002e0: ae1c f13d c4c6 363d 6fd0 c0bd b237 44be
000002f0: cee5 9c3c 374b 8a3e 796d dabd dab7 c7bd
00000300: bea6 b63e 193f 493e 5cac 423e 8a39 5c3d
00000310: 5688 2a3e 6bcd e8bd 52c1 bb3d 35e3 cfbd
00000320: 2e32 ec3d 90ed b13e 1f8b d63c 909f 63bd
00000330: 4d54 923e bfbd a6bd acd4 183e 6c6e 063d
00000340: 9351 853e 51d4 233e 8151 66be 84e1 b03e
00000350: 0e41 fe3c 5908 693d 3c48 f53d 4e54 1a3e
00000360: 9b8d 293e aa52 0bbe 0f93 dc3d 2575 89be
00000370: 00e8 9ebd 14ce 973e 4575 d23c 5e19 803e
00000380: 171b 23be b742 90bd 833a e33c ee66 c93d
00000390: 0ddd 2b3d 6fdc 763d 8c89 2a3e b86a 2dbe
000003a0: 88bd ed3d 639a 23be 7715 13bd f2cb 223e
000003b0: 8c7d efbd 0973 bbbc 9cdc bcbd 3cfe 57be
000003c0: 057a 153e cce0 033e 9605 0b3d e6c6 81be
000003d0: e3b7 a03e 13cd ba3c e86d fdbd 49e7 af3c
000003e0: 16af 403e 23e4 c63d 7d78 143c 119a 9abd
000003f0: eaec 5c3d 19fe 5d3e 9b16 283e 0848 fabd

2.bias f4 [100]
0.03543476 0.096424006 0.15261525 0.055954847 0.21360807 -0.016413474 0.032055747 0.014066563
0.035832055 0.114964776 0.15550351 0.13857949 0.092368506 0.033147417 0.092643075 0.07316673
0.012556474 -0.28248036 0.054700106 0.0829597 0.122378215 0.078379884 0.01322514 0.008961101
0.07733049 0.15422241 -0.017231647 0.10552186 0.09957033 0.13055556 0.24627993 0.12703183
-0.008881373 0.042357616 0.1396031 0.11063094 0.18293163 0.11092787 0.015758589 0.08366034
0.07710735 0.3332841 0.084228225 0.123734824 0.062231645 0.05759855 0.026397232 0.13376242
0.10213348 0.09316872 0.04165303 0.047191676 0.17826621 0.16551748 0.2291852 0.05799525
0.122538924 0.13338053 0.19838858 0.07583122 -0.022539591 0.07516045 0.036880437 0.032836374
0.024564138 0.06173728 0.10732888 -0.105599895 -0.005884586 -0.07219616 0.0113377245 0.060875557
-0.025214827 0.18234344 0.06865183 0.0668112 0.10607899 0.0924569 0.07364533 0.07981492
0.007359375 -0.044169676 0.23756704 0.09181008 0.12487475 0.07363482 0.044521175 0.12699589
0.14636274 0.098239906 0.08301176 0.04550939 0.15465318 0.0782029 0.16828719 0.092969105
0.025939096 0.034918416 0.13382086 0.27163437
00000000: 0a24 113d f379 c53d 2c47 1c3e e930 653d
00000010: 13bc 5a3e 8d75 86bc e34c 033d 7177 663c
00000020: a2c4 123d a772 eb3d 503c 1f3e c8e7 0d3e
00000030: b32b bd3d 96c5 073d a7bb bd3d 70d8 953d
00000040: abb9 4d3c 44a1 90be 380d 603d c6e6 a93d
00000050: 6ea1 fa3d a285 a03d 42ae 583c 95d1 123c
00000060: 735f 9e3d 7bec 1d3e 6229 8dbc d81b d83d
00000070: 87eb cb3d 5bb0 053e ce30 7c3e a214 023e
00000080: 2e83 11bc 2e7f 2d3d 1df4 0e3e 7992 e23d
00000090: 6e52 3b3e 272e e33d 2818 813c 1d56 ab3d
000000a0: 75ea 9d3d 37a4 aa3e d97f ac3d af68 fd3d
000000b0: 9ce6 7e3d 75ec 6b3d 023f d83c 04f9 083e
000000c0: 5c2b d13d 3ecf be3d 5e9c 2a3d 0f4c 413d
000000d0: 6b8b 363e 6a7d 293e 86af 6a3e 6d8c 6d3d
000000e0: b0f5 fa3d e894 083e 6026 4b3e 664d 9b3d
000000f0: f3a4 b8bc b9ed 993d f10f 173d 6f7f 063d
00000100: bb3a c93c 3be0 7c3d 3ecf db3d c244 d8bd
00000110: 7cd3 c0bb 95db 93bd ddc1 393c a658 793d
00000120: 538f cebc 3db8 3a3e 5599 8c3d 4fd4 883d
00000130: f13f d93d 0b5a bd3d 5dd3 963d 0176 a33d
00000140: e926 f13b 43eb 34bd c644 733e ec06 bc3d
00000150: 55be ff3d dacd 963d d65b 363d 360b 023e
00000160: 1de0 153e 0132 c93d 1202 aa3d 0e68 3a3d
00000170: 675d 1e3e d828 a03d 7a53 2c3e 9666 be3d
00000180: 3a7e d43c 9d06 0f3d 5608 093e a913 8b3e

2.weight f4 [100, 784]
0.042978775 -0.053648908 0.10585048 -0.08299668 -0.09516158 -0.05034536 -0.004930679 0.11269194
-0.09602509 -0.17031324 -0.04640476 -0.050382193 -0.06920282 -0.1033939 -0.015986603 0.013535531
-0.0068479627 0.053627748 -0.117170826 0.060886968 0.12492486 -0.059309907 -0.024111897 0.04357622
0.08784104 -0.08164602 0.015350707 0.10912005 0.05998925 0.056343775 -0.14716771 0.078228
-0.0056573297 -0.052692283 0.15212722 0.071278 0.096663885 0.0067024524 -0.061036076 -0.18709685
0.050787494 -0.09129902 0.011518752 -0.07508606 0.1341456 0.07292585 0.08187902 -0.1105871
0.02991697 0.03505339 -0.0018954438 -0.011741955 0.094621 -0.0020276203 0.017553823 0.19424738
0.0019410797 -0.093482964 0.15514843 0.10002496 0.11291335 0.019018332 0.038885396 -0.11882772
0.12948257 0.10353611 -0.071914405 0.08555137 -0.0400975 0.12711805 0.0024525346 -0.08367817
0.07135871 -0.06149164 -0.005398039 -0.13424194 0.071071334 -0.03017857 0.052893236 0.12268223
0.15553683 -0.18598826 -0.01499966 -0.16126703 -0.095204346 -0.1889954 -0.065859064 -0.068638794
0.026005367 0.015701441 -0.023508672 -0.047008734 -0.13047694 -0.0870087 -0.15311117 -0.1883005
-0.1785103 0.05994173 -0.09977459 -0.14647362 0.107087746 -0.021247473 0.07732236 -0.13908032
-0.07544957 0.06631719 -0.04961942 -0.04276018 -0.016795622 0.10207286 -0.07512664 -0.038863387
0.023621133 -0.00792398 0.013088523 -0.08742464 0.04743019 -0.123335175 -0.014699793 -0.0365978
-0.095056206 0.08158949 -0.07301544 0.07657154 -0.17019738 0.005252471 0.042268157 -0.03652388
-0.06958899 -0.18466404 0.017584538 -0.1574212 -0.07038581 -0.022871356 0.1935768 -0.06883684
-0.11555839 -0.0047902227 -0.11259605 0.099526264 0.039876543 -0.026253393 -0.0130750025 -0.0059770853
0.09682923 0.08337035 -0.0104236165 -0.014789352 0.02426115 0.11903758 0.045400277 0.0754871
-0.09822519 -0.19361302 -0.088108204 0.11721235 0.16931401 0.049724203 0.1270489 0.038322486
0.011643475 -0.05389246 0.06433913 -0.061661884 -0.054943886 0.022667123 -0.0072208988 -0.0028301429
0.1276138 -0.07412753 0.04570949 -0.11466462 -0.04651881 -0.113477506 0.12881505 0.12660857
0.041411106 0.06526186 0.1676525 -0.10403437 0.06694411 0.057378918 0.01621021 -0.052535772
-0.020771848 0.103485614 -0.053474788 -0.09402039 0.06660858 0.0028649704 -0.041018087 0.055818614
-0.09801047 0.015124935 0.020166667 -0.047653694 0.07222321 -0.1836593 -0.06137004 0.14756894
-0.16938911 0.011155278 -0.09027743 -0.12574738 0.071296066 0.05269283 -0.0130596785 -0.03222194
-0.061656773 -0.051188774 -0.14093588 -0.21517667 -0.10544051 -0.12091883 -0.036643557 -0.02982868
-0.025083736 0.04501723 -0.015897812 0.11073264 0.016879465 0.067953564 -0.019826418 -0.012648788
0.03657494 -0.07290821 0.15116097 0.1183964 0.063489124 -0.09208998 -0.0358019 -0.04569034
0.062978946 -0.037176497 0.015268338 0.03725226 -0.083772644 0.024969105 -0.12835883 -0.04533792
-0.2702512 -0.008900909 -0.007757701 0.018378137 0.11485341 0.04492223 0.09510442 -0.10998477
0.09026929 -0.045111824 -0.07771931 0.06573852 -0.17496821 0.031633914 0.0637295 0.008858912
00000000: 830a 303d f5be 5bbd 23c8 d83d 2afa a9bd
00000010: 13e4 c2bd f036 4ebd 8991 a1bb 08cb e63d
00000020: cda8 c4bd 9866 2ebe eb12 3ebd 8f5d 4ebd
00000030: 35ba 8dbd 2ec0 d3bd 56f6 82bc 22c4 5d3c
00000040: e064 e0bb c5a8 5b3d 42f7 efbd 9d64 793d
00000050: 9bd8 ff3d f2ee 72bd 5086 c5bc fa7c 323d
00000060: 01e6 b33d 0736 a7bd 8881 7b3c 557a df3d
00000070: 4ab7 753d bbc8 663d 22b3 16be 0036 a03d
00000080: 1f61 b9bb ddd3 57bd 3dc7 1b3e 33fa 913d
00000090: b7f7 c53d 3fa0 db3b f700 7abd 5196 3fbe
000000a0: 8c06 503d fbfa babd 26b9 3c3c b8c6 99bd
000000b0: 775d 093e 265a 953d 30b0 a73d 7d7b e2bd
000000c0: 6f14 f53c 2594 0f3d 8a70 f8ba 5461 40bc
000000d0: a8c8 c13d d3e1 04bb 09cd 8f3c c9e8 463e
000000e0: d46b fe3a ff73 bfbd 3bdf 1e3e e3d9 cc3d
000000f0: 1d3f e73d 55cc 9b3c 4b46 1f3d f35b f3bd
00000100: 1497 043e bd0a d43d dc47 93bd 8f35 af3d
00000110: 473d 24bd 3c2b 023e b4ba 203b 765f abbd
00000120: 8424 923d a8de 7bbd 08e2 b0bb b876 09be
00000130: d98d 913d 0c39 f7bc 94a6 583d d240 fb3d
00000140: 0c45 1f3e b573 3ebe 22c1 75bc 2f23 25be
00000150: 7ffa c2bd 0388 41be 1ee1 86bd 7f92 8cbd
00000160: 3509 d53c 4fa0 803c 4295 c0bc 3b8c 40bd
00000170: bf9b 05be 9e31 b2bd 2dc9 1cbe d9d1 40be
00000180: 67cb 36be 7685 753d 9f56 ccbd 2efd 15be
00000190: d250 db3d 2e0f aebc 2f5b 9e3d 126b 0ebe
000001a0: 4e85 9abd 4fd1 873d bc3d 4bbd 4c25 2fbd
000001b0: f996 89bc 930b d13d ffdb 99bd 372f 1fbd
000001c0: 1b81 c13c 95d3 01bc 3f71 563c b10b b3bd
000001d0: 2946 423d 2797 fcbd 67d7 70bc 93e7 15bd
000001e0: d4ac c2bd 6418 a73d 1e89 95bd 8ad1 9c3d
000001f0: 3948 2ebe ec1c ac3b 6021 2d3d 109a 15bd
00000200: ac84 8ebd 9218 3dbe 730d 903c 0633 21be
00000210: 7026 90bd b65c bbbc ff38 463e 54fa 8cbd
00000220: e1a9 ecbd 4df7 9cbb c298 e6bd 6dd4 cb3d
00000230: 9655 233d 5b11 d7bc 8938 56bc 6ddb c3bb
00000240: 674e c63d 13be aa3d d1c7 2abc 0a4f 72bc
00000250: 52bf c63c fac9 f33d a4f5 393d fb98 9a3d
00000260: 4a2a c9bd 7e42 46be 1372 b4bd 070d f03d
00000270: a760 2d3e 9bab 4b3d 1b19 023e 0af8 1c3d
00000280: 46c4 3e3c 57be 5cbd 3cc4 833d 2c91 7cbd
00000290: d70c 61bd 67b0 b93c 4a9d ecbb eb79 39bb
000002a0: 31ad 023e 2dd0 97bd e039 3b3d 49d5 eabd
000002b0: 828a 3ebd e566 e8bd 18e8 033e ada5 013e
000002c0: b19e 293d 03a8 853d 19ad 2b3e f90f d5bd
000002d0: fe19 893d 2806 6b3d 46cb 843c c02f 57bd
000002e0: b929 aabc 44f0 d33d 6108 5bbd c38d c0bd
000002f0: 146a 883d 3ac2 3b3b 9502 28bd 0fa2 643d
00000300: b7b9 c8bd 93ce 773c 9134 a53c 8530 43bd
00000310: c3e9 933d 2f11 3cbe 275f 7bbd 501c 173e
00000320: 5774 2dbe a1c4 363c 60e3 b8bd ecc3 00be
00000330: ac03 923d 70d4 573d 43f8 55bc 27fb 03bd
00000340: d08b 7cbd 52ab 51bd 7f51 10be 4657 5cbe
00000350: 32f1 d7bd 4ba4 f7bd 8e17 16bd 475b f4bc
00000360: 687c cdbc fd63 383d 213c 82bc cbc7 e23d
00000370: ce46 8a3c 3d2b 8b3d 036b a2bc dd3c 4fbc
00000380: 9bcf 153d e650 95bd f1c9 1a3e d079 f23d
00000390: 9606 823d ac99 bcbd 03a5 12bd cb25 3bbd
000003a0: 1bfb 803d 6246 18bd 0d28 7a3c d395 183d
000003b0: fe90 abbd 028c cc3c 7f70 03be 41b4 39bd
000003c0: 5e5e 8abe 1ed5 11bc 5034 febb bf8d 963c
000003d0: 4438 eb3d 5f00 383d 1bc6 c23d b23f e1bd
000003e0: 1bdf b83d 2dc7 38bd 4d2b 9fbd eba1 863d
000003f0: de2a 33be 9092 013d 9d84 823d f824 113c

4.bias f4 [100]
0.03179967 0.19273137 0.096275546 -0.03502699 0.13401152 0.21330053 0.08517115 0.092389196
0.00866783 0.1454878 0.15716329 0.019720733 0.12884606 0.08280409 0.04861743 0.023786683
0.09887378 0.18618275 0.13088043 0.14546777 0.09535329 0.047774553 0.17329308 0.10071115
0.03983161 0.014629968 0.28411376 -0.03893509 0.029966043 0.02540904 0.108774565 0.30063382
-8.518575e-05 0.004221509 0.078475825 0.14250001 0.043030217 0.055798512 0.16511153 0.017218582
0.19388735 0.101129875 0.079589 0.022730814 -0.014801195 0.030177787 -0.0007493383 -0.016517915
-0.053434562 0.08758973 0.17553177 0.016622765 0.05226078 0.19677006 0.008528243 0.119115524
0.06750342 -0.010141264 0.08109748 -0.037550583 0.08120477 0.046871077 0.02552281 0.023118496
0.16968408 -0.06249504 0.15264405 0.058343653 -0.08218053 0.0713505 0.14249672 0.02761982
0.0709588 0.09199281 0.007604686 0.08227984 0.094009265 -0.025685688 0.021603791 0.25473815
0.10216156 0.05065948 -0.04756838 0.0009168915 0.0075696004 0.16343465 0.07275077 0.080266014
-0.029721182 0.076870024 -0.06398534 -0.037036892 0.030476045 0.019470733 0.064668365 0.024586545
0.08269079 0.0153519 0.017931163 -0.12544246
00000000: 5f40 023d 5f5b 453e 1d2c c53d 7678 0fbd
00000010: 513a 093e 746b 5a3e 366e ae3d 8c36 bd3d
00000020: 8403 0e3c c1fa 143e 6aef 203e 608d a13c
00000030: 39f0 033e 3195 a93d 1223 473d 4adc c23c
00000040: 567e ca3d b1a6 3e3e 8505 063e 81f5 143e
00000050: 9648 c33d 40af 433d be73 313e a641 ce3d
00000060: 7826 233d 89b2 6f3c 5c77 913e 677a 1fbd
00000070: 597b f53c 9e26 d03c 33c5 de3d adec 993e
00000080: c0a5 b2b8 9654 8a3b efb7 a03d 86eb 113e
00000090: 7440 303d fb8c 643d ff12 293e fc0d 8d3c
000000a0: 688a 463e 2e1d cf3d 8fff a23d f935 ba3c
000000b0: b680 72bc 6837 f73c 3e6f 44ba 9450 87bc
000000c0: 33de 5abd 3f62 b33d 9abe 333e 772c 883c
000000d0: 660f 563d 177e 493e 0bba 0b3c d7f2 f33d
000000e0: 3c3f 8a3d 8b27 26bc 7016 a63d a4ce 19bd
000000f0: b04e a63d e3fb 3f3d 3615 d13c 0063 bd3c
00000100: aac1 2d3e cdfa 7fbd b94e 1c3e c1f9 6e3d
00000110: 444e a8bd 3620 923d a9ea 113e f642 e23c
00000120: d952 913d ba66 bc3d bb30 f93b 5582 a83d
00000130: ee87 c03d cb6a d2bc 6ffa b03c 0a6d 823e
00000140: 143a d13d 5180 4f3d 10d7 42bd 8c5b 703a
00000150: 690a f83b 6a5b 273e 5bfe 943d 8262 a43d
00000160: d679 f3bc 086e 9d3d bf0a 83bd ffb3 17bd
00000170: e6a8 f93c 1681 9f3c d970 843d b969 c93c
00000180: ca59 a93d 8986 7b3c 60e4 923c fd73 00be

4.weight f4 [100, 100]
-0.13005777 -0.18971439 -0.010032462 -0.0373156 -0.065205835 0.11170596 -0.07320953 0.10558057
-0.18789475 0.06894556 -0.117125444 -0.055064548 -0.1944923 -0.23479252 -0.16379048 0.048062302
-0.10380377 0.08706285 0.018590394 0.12085803 -0.13465582 -0.1968355 0.009071896 -0.022661258
0.17823993 -0.09867966 -0.08728113 0.010891698 0.08560203 -0.09923283 0.079963796 0.122268274
-0.0008023926 -0.07388755 0.12738109 0.04115297 0.026257558 0.06708499 -0.010843173 0.05182351
-0.08381656 -0.05868909 -0.22243287 0.25843853 -0.024310796 0.10505274 0.19580184 0.010027162
0.008934659 -0.11985525 0.17071001 0.010313209 0.056774788 0.19921577 0.13648514 0.10313434
0.055151064 0.07469146 0.022821754 -0.11795753 -0.056082763 -0.0122997835 -0.059352133 0.067411534
-0.17577857 0.016039088 -0.047541063 -0.07953569 0.025218224 0.0035937033 -0.05192227 -0.083232515
0.16319907 -0.07225765 0.03358283 0.017763734 -0.038573027 0.08683058 0.17936933 0.15136553
-0.22033177 0.019805556 0.10442738 -0.01435025 -0.011889614 0.05109207 -0.009840029 -0.102862045
-0.044621475 -0.06312616 -0.012623484 0.07526603 -0.12668262 -0.024150804 0.039096005 -0.17684454
-0.07971138 0.12915571 -0.00879748 0.06822464 0.06117848 -0.10848854 -0.016056046 -0.033711795
-0.15454687 0.030747283 -0.05883773 -0.04247724 0.04171692 -0.11872404 -0.042822227 0.036530416
-0.00021797756 0.17807809 0.019789657 -0.016415205 -0.24066004 0.10128325 0.06808124 0.06814917
-0.13727519 -0.006368265 0.10279982 -0.06403913 -0.023773853 0.12967055 0.21277793 0.02625478
-0.11710832 -0.11629224 -0.12642978 -0.097260624 -0.017522043 -0.052512016 -0.17954637 -0.1148625
-0.14519101 0.07404204 0.12677933 0.037609 0.03294755 -0.2183632 -0.01841002 -0.032635674
-0.11771906 -0.08255134 -0.047899734 0.058664143 -0.08737824 -0.120387465 0.031055871 -0.17457181
-0.18716347 -0.016475204 0.014140169 -0.08581161 -0.10344742 0.11717596 -0.11950795 0.019792248
0.019326137 0.06266332 0.14674763 0.07977714 -0.01028271 -0.09604078 0.07513658 0.09138825
0.08432455 -0.0014931039 0.1388611 0.15658997 0.08160463 -0.17080998 -0.042808052 -0.100360796
0.044521146 -0.017195152 -0.10617764 -0.12289792 -0.017804481 -0.050696224 -0.1307854 0.044496335
-0.14182632 0.03237705 0.17046995 -0.1817061 0.020228496 -0.10602505 0.1489647 -0.08286454
0.057934925 -0.046898548 0.017745515 -0.13255914 0.04797611 -0.079072006 -0.17781301 -0.048588376
-0.050266676 0.1647452 -0.1537943 -0.064533524 -0.18816097 0.16145313 -0.08791887 -0.08892361
0.12935516 0.019635884 -0.11008589 -0.13483419 0.22155863 -0.022193369 0.13189031 0.07685419
-0.16523033 -0.18027906 -0.08513266 -0.12652586 -0.101695634 0.144906 -0.098322235 0.0865224
0.12756851 -0.08414114 0.14076652 -0.020264104 0.013215488 0.044889204 -0.015500068 -0.19502766
-0.04718682 0.14855695 -0.07753809 -0.1924795 -0.036348213 -0.13127312 0.1726419 0.028697742
-0.07219969 0.102269225 -0.059339996 -0.0057322923 0.069456376 -0.066226915 0.05581085 -0.13124159
-0.02673122 0.02169554 -0.11861952 0.2112184 0.08191653 0.04471273 -0.16307119 0.071092695
00000000: dd2d 05be 7d44 42be 325f 24bc 3ed8 18bd
00000010: a38a 85bd 18c6 e43d e1ee 95bd a03a d83d
00000020: 7b67 40be 5433 8d3d 77df efbd 5d8b 61bd
00000030: fd28 47be 736d 70be b1b8 27be fadc 443d
00000040: 1297 d4bd 024e b23d e24a 983c 6a84 f73d
00000050: 37e3 09be 3f8f 49be 4aa2 143c 1aa4 b9bc
00000060: 8784 363e 9018 cabd 73c0 b2bd 1873 323c
00000070: 1e50 af3d 953a cbbd 0fc4 a33d ca67 fa3d
00000080: a857 52ba 5b52 97bd 3070 023e 0490 283d
00000090: 171a d73c db63 893d 90a7 31bc e444 543d
000000a0: 04a8 abbd f963 70bd 71c5 63be 0e52 843e
000000b0: 6f27 c7bc e425 d73d 4780 483e f748 243c
000000c0: ad62 123c ab76 f5bd 9bce 2e3e bcf8 283c
000000d0: ae8c 683d 38ff 4b3e c3c2 0b3e 1938 d33d
000000e0: 15e6 613d d6f7 983d b0f4 ba3c b893 f1bd
000000f0: 0ab7 65bd 0885 49bc 391b 73bd 0f0f 8a3d
00000100: 4cff 33be 6864 833c 6bba 42bd 9ce3 a2bd
00000110: 7396 ce3c 5684 6b3b 72ac 54bd cf75 aabd
00000120: a81d 273e d2fb 93bd 268e 093d 4085 913c
00000130: c0fe 1dbd 3bd4 b13d 98ac 373e 91ff 1a3e
00000140: a79e 61be 433f a23c 06de d53d 501d 6bbc
00000150: a8cc 42bc eb45 513d 1338 21bc 56a9 d2bd
00000160: 02c5 36bd 4a48 81bd bbd2 4ebc 1425 9a3d
00000170: 17b9 01be e8d7 c5bc 2223 203d bc16 35be
00000180: b83f a3bd 6541 043e 4e23 10bc 5cb9 8b3d
00000190: 4996 7a3d 3d2f debd f887 83bc 6115 0abd
000001a0: 8941 1ebe bae1 fb3c d5ff 70bd 9dfc 2dbd
000001b0: 5cdf 2a3d 9725 f3bd 5c66 2fbd eba0 153d
000001c0: e890 64b9 1a5a 363e eb1d a23c 2e79 86bc
000001d0: 966f 76be 986d cf3d 2d6e 8b3d cb91 8b3d
000001e0: de91 0cbe e1ac d0bb b688 d23d f326 83bd
000001f0: 62c1 c2bc 5bc8 043e 75e2 593e 4414 d73c
00000200: 7dd6 efbd a02a eebd cf76 01be 9430 c7bd
00000210: 638a 8fbc d716 57bd 01db 37be 083d ebbd
00000220: f4ac 14be 5aa3 973d 71d2 013e e50b 1a3d
00000230: 03f4 063d 9a9a 5fbe 9cd0 96bc fcac 05bd
00000240: b116 f1bd ad10 a9bd 8332 44bd d049 703d
00000250: 5df3 b2bd b48d f6bd e268 fe3c f4c2 32be
00000260: c8a7 3fbe 02f7 86bc 2bac 673c ffbd afbd
00000270: 3edc d3bd f3f9 ef3d 96c0 f4bd 5a23 a23c
00000280: d951 9e3c a055 803d 0345 163e 3262 a33d
00000290: d078 28bc 07b1 c4bd 35e1 993d c329 bb3d
000002a0: 5ab2 ac3d 41b4 c3ba 9b31 0e3e 1f59 203e
000002b0: 5420 a73d d0e8 2ebe 7f57 2fbd f689 cdbd
000002c0: ce5b 363d d9dc 8cbc aa73 d9bd e8b1 fbbd
000002d0: b4da 91bc d8a6 4fbd 9cec 05be ca41 363d
000002e0: eb3a 11be cc9d 043d ad8f 2e3e 2a11 3abe
000002f0: 3bb6 a53c a923 d9bd 348a 183e e2b4 a9bd
00000300: 2c4d 6d3d b118 40bd 0b5f 913c 95bd 07be
00000310: 9982 443d 81f0 a1bd 9d14 36be 9b04 47bd
00000320: 6ee4 4dbd f7b2 283e 417c 1dbe 272a 84bd
00000330: 45ad 40be f853 253e cf0e b4bd 951d b6bd
00000340: ae75 043e 6fdb a03c b674 e1bd f911 0abe
00000350: 44e0 623e dece b5bc 410e 073e bb65 9d3d
00000360: 2432 29be 139b 38be 085a aebd ff8f 01be
00000370: cd45 d0bd 3d62 143e 2b5d c9bd a832 b13d
00000380: 52a1 023e 3152 acbd 1925 103e e800 a6bc
00000390: c685 583c bedd 373d fff3 7dbc 55b5 47be
000003a0: f846 41bd 501f 183e 4acc 9ebd 5919 45be
000003b0: dde1 14bd 766c 06be 0ac9 303e 8717 eb3c
000003c0: 6edd 93bd 8772 d13d 7f0e 73bd f4d5 bbbb
000003d0: 253f 8e3d faa1 87bd eb99 643d 3264 06be
000003e0: 6efb dabc d8ba b13c caee f2bd a349 583e
000003f0: dbc3 a73d b224 373d 22fc 26be 0c99 913d

6.bias f4 [100]
0.18627147 0.14830048 0.03557055 0.03728762 0.07852638 0.10469926 0.054026566 -0.010252805
0.12248335 0.12015949 0.16158289 0.14702033 0.07382504 0.13753678 0.14580278 0.09236039
0.072503895 0.1361367 0.17954043 0.01187799 0.106974244 0.072341934 -0.0072161537 0.13233246
0.055954047 0.07047789 0.021305788 0.037507016 0.08011748 0.05914117 0.16822524 0.013637007
0.029443804 0.08018679 0.02448445 0.24109867 0.1327113 0.1558996 0.12082936 0.035166483
0.100348786 0.050598484 0.0965439 0.04335103 0.06191242 -0.007791817 0.23140322 -0.038143575
0.041781493 0.09560724 0.17586868 0.12276923 0.07540664 0.07494878 0.03122761 -0.025102755
0.10755615 0.011314624 -0.013582591 0.081107564 -0.0022815247 -0.028858569 0.07179976 -0.04485989
0.0088539785 0.14566417 0.06879299 0.09271171 0.13781008 0.08659496 0.048635997 0.06800795
-0.01849856 0.034103904 0.03715233 0.008972247 -0.039110642 0.0130971605 -0.0115557285 -0.03463668
0.13481055 0.12429685 0.03685636 0.07038649 0.026117168 0.041844208 0.122768365 0.08629572
0.15140224 0.12887642 0.038258273 0.16374792 0.11317799 0.21899968 0.067475185 0.09425043
0.18912557 0.21742998 0.25408193 0.09975775
00000000: f3bd 3e3e 15dc 173e 6db2 113d e7ba 183d
00000010: 70d2 a03d 916c d63d f64a 5d3d 62fb 27bc
00000020: 8dd8 fa3d 2e16 f63d fc75 253e 7f8c 163e
00000030: 9531 973d 71d6 0c3e 534d 153e 7227 bd3d
00000040: ec7c 943d 6b67 0b3e 72d9 373e e79b 423c
00000050: 5015 db3d 0228 943d 7c75 ecbb 2982 073e
00000060: 1230 653d b656 903d 7a89 ae3c f5a0 193d
00000070: a214 a43d 033e 723d 3d43 2c3e c16d 5f3c
00000080: 2234 f13c f938 a43d 9d93 c83c 92e2 763e
00000090: 79e5 073e 25a4 1f3e 6275 f73d bb0a 103d
000000a0: aa83 cd3d 5b40 4f3d cfb8 c53d da90 313d
000000b0: e197 7d3d 8052 ffbb f7f4 6c3e 703c 1cbd
000000c0: 1223 2b3d bbcd c33d eb16 343e 6f6e fb3d
000000d0: cc6e 9a3d bf7e 993d 0bd1 ff3c 4ba4 cdbc
000000e0: 6646 dc3d f960 393c 8489 5ebc b91b a63d
000000f0: a285 15bb ce68 ecbc c10b 933d 01bf 37bd
00000100: 4710 113c fd28 153e 57e3 8c3d a3df bd3d
00000110: 161e 0d3e b358 b13d 8a36 473d c147 8b3d
00000120: 4b8a 97bc 89b0 0b3d 0b2d 183d 5500 133c
00000130: 7b32 20bd 7995 563c 3d54 3dbc 31df 0dbd
00000140: c70b 0a3e 598f fe3d b2f6 163d cb26 903d
00000150: acf3 d53c d564 2b3d fb6d fb3d cfbb b03d
00000160: 3009 1b3e 2ef8 033e b5b4 1c3d 89ad 273e
00000170: ddc9 e73d 7441 603e 6e30 8a3d 5f06 c13d
00000180: 22aa 413e f7a5 5e3e 0717 823e cb4d cc3d

6.weight f4 [100, 100]
0.030800875 0.029318983 0.054304805 0.10256498 -0.24574837 0.02296798 -0.0441976 0.17184778
0.039087463 0.065290086 0.13827822 0.11799906 0.06300119 0.08750272 -0.095899194 -0.12799694
0.1327947 -0.15001546 0.12229853 -0.06634241 0.0063495445 0.033414807 0.016339308 -0.039772313
0.070689 0.0018812601 0.11653908 -0.104293145 0.09885504 0.0075277016 -0.06737681 0.18916962
-0.08248234 0.1030927 0.0021075222 0.116067566 0.08715856 0.09046501 -0.0371122 0.06303214
0.21550488 -0.05372336 -0.10058896 -0.024482682 -0.056302067 -0.07155272 0.0146887 -0.02495162
-0.07303593 -0.0031750174 0.17092884 -0.123782985 0.099364765 -0.018066823 -0.19120446 0.18810983
-0.008160048 0.15396413 0.19765571 0.093031056 0.04713309 0.1370724 -0.1083977 -0.07988599
0.024590753 0.068666846 0.039101485 -0.04730866 -0.2513393 0.022690684 -0.09092165 0.015202709
-0.0433345 0.032898627 0.12868726 0.00035056693 0.025404084 0.116847046 0.08162489 0.052314855
0.103766724 0.022229834 -0.16215456 0.04028523 -0.21467514 0.16209815 -0.052188106 -0.078338824
-0.036475707 0.09746293 -0.13039665 -0.13229544 -0.023960335 -0.10130407 0.06605281 0.08679977
-0.16902435 -0.1004369 -0.07502977 0.048654307 0.20728903 -0.10059052 0.0068893535 -0.009824527
-0.07312893 -0.18952172 -0.08331572 -0.10324452 0.061300807 -0.065954655 0.04217301 0.01934066
-0.1310271 0.03266409 -0.04163141 -0.023012554 0.12598717 0.008855715 0.085117355 0.04620517
-0.15077539 0.00873107 -0.08990991 0.09480979 -0.13820826 0.030988991 0.16090609 -0.055842478
0.078697294 0.016127596 -0.16031222 -0.025554305 0.05581826 0.036234625 0.07147809 0.15696403
0.11759849 0.15369628 0.11557834 0.0684914 -0.082103275 -0.07890777 -0.06442259 0.04011836
-0.11926293 -0.010512117 -0.062608734 0.029892867 -0.09858451 -0.005103295 0.22567901 0.12217663
-0.12701283 0.0967699 0.0105144605 0.13358513 -0.11533197 0.08519933 -0.051485527 -0.18298665
-0.15417156 -0.014533676 0.0011507743 0.016474158 -0.009940406 0.11304669 -0.024056558 -0.07212684
-0.10994003 0.014663832 -0.15147305 0.014205792 -0.063377276 -0.048194923 -0.055440392 0.10534497
-0.16824655 -0.001075682 -0.087068014 -0.060340036 -0.074886985 0.050602064 0.006312154 0.07781079
-0.020932388 0.023866385 0.020854741 -0.22339192 0.18661414 0.07775466 0.1631925 -0.09552818
-0.02613827 -0.025627952 -0.0529977 -0.0127716 -0.15728681 -0.13590436 0.045666296 -0.18510929
0.019946788 0.12356831 -0.24293946 0.15923403 0.18976408 0.01596878 0.11807763 0.019070586
-0.043340918 0.08551785 0.08724063 -0.014346693 0.075909026 -0.042265724 -0.066003695 0.04822537
-0.16952105 -0.043584276 -0.014532215 -0.13414595 0.0047369017 -0.22158386 0.022217734 -0.0061202534
0.045367375 0.039909314 0.10160925 -0.03538039 0.044403613 -0.18274085 -0.04162543 0.008712208
-0.20722948 0.026428174 -0.1954256 0.08474131 -0.009973573 -0.10932782 -0.03285682 0.15189913
-0.018129792 -0.009020064 0.03955091 -0.09471823 -0.070357196 -0.03821897 0.04480805 0.03755004
0.085090466 -0.14299925 -0.14294034 -0.046047293 0.16776328 -0.01687549 -0.09280204 -0.012089251
00000000: 1e52 fc3c 5d2e f03c b76e 5e3d 970d d23d
00000010: 76a5 7bbe 5827 bc3c 8b08 35bd ddf8 2f3e
00000020: 2d1a 203d cfb6 853d ce98 0d3e 7ea9 f13d
00000030: c506 813d a034 b33d cc66 c4bd a111 03be
00000040: 55fb 073e a79d 19be a777 fa3d 88de 87bd
00000050: d70f d03b f7dd 083d 03da 853c 4be8 22bd
00000060: 65c5 903d 9d94 f63a 0bac ee3d a597 d5bd
00000070: 8374 ca3d f0aa f63b dafc 89bd aeb5 413e
00000080: 80ec a8bd 4422 d33d 5b1e 0a3b d5b4 ed3d
00000090: 3080 b23d b845 b93d f602 18bd ff16 813d
000000a0: 50ad 5c3e 070d 5cbd 9601 cebd e88f c8bc
000000b0: ff9c 66bd 3c8a 92bd e0a8 703c 5767 ccbc
000000c0: dd93 95bd f413 50bb f807 2f3e ef81 fdbd
000000d0: c17f cb3d e000 94bc 1acb 43be dd9f 403e
000000e0: b9b1 05bc c6a8 1d3e 4266 4a3e 1187 be3d
000000f0: a10e 413d b55c 0c3e 9dff ddbd 449b a3bd
00000100: 8c72 c93c 34a1 8c3d e128 203d bac6 41bd
00000110: 8baf 80be d0e1 b93c 2135 babd c814 793c
00000120: 847f 31bd b6c0 063d 98c6 033e 4ccc b739
00000130: 3a1c d03c 814d ef3d f32a a73d 1a48 563d
00000140: a683 d43d 571b b63c d80b 26be 2002 253d
00000150: cdd3 5bbe 0ffd 253e 32c3 55bd 1b70 a0bd
00000160: 8d67 15bd a59a c73d b386 05be 7578 07be
00000170: 7748 c4bc 8278 cfbd b246 873d 14c4 b13d
00000180: b814 2dbe ddb1 cdbd 35a9 99bd bd49 473d
00000190: 9343 543e 6702 cebd 16c0 e13b 0ef7 20bc
000001a0: 9fc4 95bd fb11 42be 6fa1 aabd dd71 d3bd
000001b0: 8e16 7b3d 3c13 87bd 9bbd 2c3d 4e70 9e3c
000001c0: f82b 06be c8ca 053d b385 2abd d384 bcbc
000001d0: c802 013e 9017 113c 0252 ae3d a241 3d3d
000001e0: dd64 1abe c30c 0f3c b022 b8bd a32b c23d
000001f0: 7786 0dbe a0dc fd3c 91c4 243e 15bb 64bd
00000200: 0c2c a13d 051e 843c e328 24be 4357 d1bc
00000210: b0a1 643d c26a 143d 1b63 923d 2ebb 203e
00000220: 7ad7 f03d 8f62 1d3e 56b4 ec3d 3845 8c3d
00000230: c325 a8bd 669a a1bd feef 83bd 2653 243d
00000240: 1f40 f4bd 043b 2cbc 0239 80bd e3e1 f43c
00000250: ade6 c9bd 8b39 a7bb 6618 673e be37 fa3d
00000260: a70f 02be 4c2f c63d d844 2c3c 8aca 083e
00000270: 2b33 ecbd fc7c ae3d 7de2 52bd da60 3bbe
00000280: 26df 1dbe a81e 6ebc 94d5 963a d0f4 863c
00000290: 16dd 22bc 0685 e73d 4212 c5bc 3db7 93bd
000002a0: 3d28 e1bd 9240 703c c01b 1bbe 69bf 683c
000002b0: f2cb 81bd 0a68 45bd 7715 63bd 1bbf d73d
000002c0: d348 2cbe e6fd 8cba b750 b2bd 1d27 77bd
000002d0: 595e 99bd 1c44 4f3d 2fd6 ce3b 435b 9f3d
000002e0: 667a abbc 7083 c33c 90d7 aa3c dac0 64be
000002f0: c717 3f3e d63d 9f3d ef1b 273e 47a4 c3bd
00000300: ed1f d6bc b6f1 d1bc 1e14 59bd f93f 51bc
00000310: cb0f 21be 832a 0bbe 950c 3b3d 4a8d 3dbe
00000320: 7267 a33c 6211 fd3d 1fc5 78be 3f0e 233e
00000330: 8451 423e f5d0 823c afd2 f13d eb39 9c3c
00000340: 3f86 31bd fc23 af3d 37ab b23d 640e 6bbc
00000350: 3176 9b3d d31e 2dbd f22c 87bd f787 453d
00000360: ed96 2dbe 6d85 32bd 8718 6ebc 8e5d 09be
00000370: 0338 9b3b e1e6 62be f701 b63c 688c c8bb
00000380: 24d3 393d f377 233d 8318 d03d 07eb 10bd
00000390: 90e0 353d 6b20 3bbe 6d7f 2abd a6bd 0e3c
000003a0: f733 54be e67f d83c a61d 48be da8c ad3d
000003b0: 3268 23bc 44e7 dfbd df94 06bd 728b 1b3e
000003c0: ee84 94bc e4c8 13bc 2300 223d a2fb c1bd
000003d0: 6f17 90bd 7f8b 1cbd a588 373d 12ce 193d
000003e0: e943 ae3d 656e 12be f45e 12be 169c 3cbd
000003f0: 23ca 2b3e 783e 8abc ff0e bebd fe11 46bc

8.bias f4 [100]
0.19564265 0.23188774 0.04354904 0.24412042 0.018822994 0.015301404 0.043414272 0.07185132
0.05374654 0.056947026 0.09677772 0.07047155 0.17788592 0.14341107 0.06497161 0.041818235
0.10857262 0.025575804 0.08330377 0.12769628 0.14456332 0.050031893 0.04745182 0.24540126
0.10933372 0.040040605 0.055503346 0.033337735 0.066890925 0.08092223 0.2345399 -0.011838884
0.073151685 0.11189848 0.12580566 0.15810221 0.039521314 0.10406949 0.0063563767 -0.020755222
0.14926738 0.07243845 0.1669872 0.057348512 -0.034862097 0.017552856 0.025080249 0.088273585
0.14862855 0.17712806 0.07284297 -0.04496771 0.15368135 -0.029910421 0.15141185 0.0904579
0.077246584 -0.056876954 0.048046175 0.076990314 0.0953558 0.06772134 0.07034171 -0.051559787
0.057461 0.06968569 0.06479594 0.048411958 0.189049 0.0914048 0.120798714 0.07977039
0.2542389 0.14762898 0.24046318 0.12879662 0.17598087 0.12094615 0.097023636 0.1176788
0.052388653 0.31889975 0.15668015 0.07548715 0.15695412 0.042501945 -0.026378429 0.113299385
0.13030286 0.037416797 0.12873062 0.10989939 0.14820684 0.07276088 0.0028274814 0.0973523
0.080748245 0.031792924 0.11437932 -0.026046427
00000000: 8c56 483e fb73 6d3e 7a60 323d b4fa 793e
00000010: ae32 9a3c bdb2 7a3c 2ad3 313d c926 933d
00000020: 5525 5c3d 4941 693d 6633 c63d 6353 903d
00000030: ba27 363e 5ada 123e d60f 853d 9949 2b3d
00000040: 525b de3d 5984 d13c 2b9b aa3d d0c2 023e
00000050: 6808 143e 3eee 4c3d d75c 423d 784a 7b3e
00000060: 5bea df3d 9e01 243d 7a57 633d 268d 083d
00000070: 1cfe 883d 8eba a53d 3a2b 703e e1f7 41bc
00000080: 8dd0 953d 082b e53d 33d3 003e 8ce5 213e
00000090: 1ae1 213d 6322 d53d 2749 d03b db06 aabc
000000a0: 8cd9 183e 9c5a 943d b1fe 2a3e 46e6 6a3d
000000b0: 8fcb 0ebd 02cb 8f3c 1875 cd3c c8c8 b43d
000000c0: 1532 183e 0f61 353e b22e 953d 1030 38bd
000000d0: a55e 1d3e b306 f5bc b50b 1b3e fe41 b93d
000000e0: 7533 9e3d cff7 68bd 11cc 443d 19ad 9d3d
000000f0: e749 c33d 7cb1 8a3d 500f 903d 5b30 53bd
00000100: 3a5c 6b3d 5fb7 8e3d bcb3 843d 9e4b 463d
00000110: 1096 413e 7132 bb3d 5165 f73d a95e a33d
00000120: 9a2b 823e 0d2c 173e fb3b 763e 43e3 033e
00000130: 5434 343e 9db2 f73d 54b4 c63d 9501 f13d
00000140: 7c95 563d d446 a33e c370 203e 0299 9a3d
00000150: 95b8 203e 8516 2e3d 9317 d8bc 8209 e83d
00000160: 1d6e 053e 5b42 193d f6d1 033e ee12 e13d
00000170: 89c3 173e a803 953d 444d 393b a560 c73d
00000180: 565f a53d 4c39 023d b43f ea3d 515f d5bc

8.weight f4 [100, 100]
-0.00053955184 -0.17385107 0.081052475 -0.046285942 0.15970284 -0.052540094 -0.035455775 0.1128845
-0.022076668 -0.07911477 0.0073621613 -0.03206413 -0.13038939 -0.11867238 -0.03731125 0.035615265
-0.01528834 -0.032392085 -0.027005468 -0.07086197 -0.026560184 0.12638678 0.0077886563 0.012626991
0.09823375 0.0452294 -0.18580239 0.015736401 0.06851714 -0.10941995 0.06292361 0.08883682
-0.06986134 -0.0142408395 0.19357483 0.01031498 -0.1180519 -0.046798863 -0.08353599 0.1076799
0.006178785 -0.0023867108 0.07506608 -0.051898554 -0.104589984 -0.01604427 -0.012813613 -0.12359112
-0.054612756 -0.07550401 0.07036848 0.013894459 -0.055448774 0.1508329 0.005717458 -0.021345854
-0.16460963 0.11655002 0.014315623 -0.040799085 0.07644624 0.08627475 0.1519116 0.09352392
0.03909597 -0.032998707 -0.126567 -0.082727246 0.053988874 -0.1587011 0.048756823 -0.087377355
-0.009501501 -0.073284805 0.06443945 -0.16531232 0.023599958 -0.062425334 -0.003182744 0.021533892
-0.10693424 -0.035284903 -0.115669556 0.05936157 -0.023783565 -0.035419032 0.10190238 -0.016042573
-0.010399923 0.16599119 -0.06364119 0.08476746 -0.16307738 0.006920624 -0.02444662 -0.015128929
-0.12921244 0.16203754 -0.056111537 0.03747346 -0.08024844 -0.104462236 -0.018179197 -0.102015495
-0.009943435 0.030099768 0.0013360644 -0.018790333 -0.014349024 0.006311738 -0.03307506 0.0019928324
-0.11645818 -0.10210786 -0.03763315 -0.0982643 -0.16970828 0.17732786 0.03736356 -0.09123317
-0.15429941 0.108740956 0.12772316 -0.04436769 -0.12042478 -0.18332906 0.0077151987 0.0711501
-0.09088575 0.067220524 0.1575072 0.027217811 0.07071334 0.02856091 -0.12294126 0.059438128
0.0007235653 0.14353323 -0.009370777 -0.008456681 -0.062112764 0.12833746 -0.08245278 -0.04306134
-0.012834144 0.074680515 -0.030517936 -0.120141126 -1.5211082e-05 0.096712045 0.100751184 -0.024738563
-0.019900046 -0.05738094 -0.08242044 0.012311292 -0.16745028 0.0746265 -0.0136244 -0.088832155
0.15019073 -0.022519251 0.09433903 0.15057816 0.06712861 -0.025153808 -0.16354309 -0.1424045
-0.09034312 0.00042088865 -0.014447772 0.08740933 -0.04090509 -0.0026927895 0.06830081 -0.011827079
-0.00652901 0.015526118 -0.1602537 -0.13725735 -0.050897814 0.06828268 0.0111667095 0.0650463
-0.10092096 0.011617229 0.13707912 -0.0492822 0.07205776 0.10686448 -0.026680762 -0.0012276378
0.038898043 -0.011003187 0.23207529 -0.04307226 0.06084896 0.045092274 0.14568046 -0.032775734
0.040105436 -0.018859835 0.073638394 -0.012430082 0.08506605 0.018814193 -0.046177074 0.09455795
-0.09128309 0.058509078 -0.016686682 -0.06394691 0.04589909 -0.07292567 0.07844804 -0.08022874
-0.056632634 -0.044867676 0.07109311 -0.0514016 -0.15995155 -0.19656855 0.054277204 0.18902038
-0.020661913 -0.044212528 0.23593304 0.033084694 -0.008433098 0.20043233 -0.027880305 -0.02975248
-0.043850712 0.030505449 -0.123768345 0.11282758 0.009256033 -0.20479031 0.09859579 -0.068846926
0.08782768 -0.12495088 0.013942247 0.11491122 0.098537624 0.09577872 0.005000433 -0.02939451
0.065876536 -0.07506571 -0.04081743 0.16331935 0.15221058 0.11092913 -0.034237992 -0.022584978
00000000: b670 0dba 0406 32be d7fe a53d 5496 3dbd
00000010: 2489 233e 4834 57bd 133a 11bd fd2f e73d
00000020: 21da b4bc ed06 a2bd 493e f13b ad55 03bd
00000030: cc84 05be 810a f3bd aed3 18bd 50e1 113d
00000040: f27b 7abc 90ad 04bd 923a ddbc 1520 91bd
00000050: be94 d9bc 896b 013e fc37 ff3b 70e1 4e3c
00000060: c72e c93d 7742 393d fb42 3ebe a0e9 803c
00000070: b752 8c3d 9117 e0bd 18de 803d 14f0 b53d
00000080: 7613 8fbd 6952 69bc 7b38 463e 2900 293c
00000090: 32c5 f1bd 2ab0 3fbd eb14 abbd 4887 dc3d
000000a0: 6877 ca3b 5d6a 1cbb 3fbc 993d 9493 54bd
000000b0: 4633 d6bd 466f 83bc 30f0 51bc 571d fdbd
000000c0: a0b1 5fbd d9a1 9abd 5a1d 903d 96a5 633c
000000d0: 411e 63bd f173 1a3e 8459 bb3b 80dd aebc
000000e0: 6d8f 28be c7b1 ee3d 138c 6a3c f11c 27bd
000000f0: d98f 9c3d d1b0 b03d b78e 1b3e 7889 bf3d
00000100: 1923 203d a729 07bd c89a 01be e76c a9bd
00000110: 7023 5d3d 8b82 22be 3cb5 473d e6f2 b2bd
00000120: 2fac 1bbc 5816 96bd d5f8 833d a247 29be
00000130: b354 c13c b5b1 7fbd 9595 50bb d867 b03c
00000140: 5700 dbbd e786 10bd 29e4 ecbd 1e25 733d
00000150: c0d5 c2bc 8c13 11bd 32b2 d03d b76b 83bc
00000160: 7064 2abc 98f9 293e 5056 82bd 909a ad3d
00000170: c2fd 26be 67c6 e23b 4744 c8bc 54df 77bc
00000180: 4450 04be 2bed 253e 36d5 65bd c57d 193d
00000190: 4b59 a4bd 4cf0 d5bd 8aec 94bc 80ed d0bd
000001a0: cae9 22bc ca93 f63c e21e af3a 2fee 99bc
000001b0: 2b18 6bbc b2d2 ce3b b779 07bd 2e9a 023b
000001c0: a081 eebd ed1d d1bd 3825 1abd cb3e c9bd
000001d0: 02c8 2dbe 6f95 353e 880a 193d 75d8 babd
000001e0: aa00 1ebe 94b3 de3d dcc9 023e e5ba 35bd
000001f0: 44a1 f6bd 9dba 3bbe c7cf fc3b 25b7 913d
00000200: 4f22 babd eaaa 893d 9149 213e e3f7 de3c
00000210: 28d2 903d 92f8 e93c a1c8 fbbd 6575 733d
00000220: a5ad 3d3a 60fa 123e e387 19bc e48d 0abc
00000230: f469 7ebd e56a 033e 01dd a8bd 1661 30bd
00000240: 4d46 52bc 19f2 983d c000 fabc 8d0c f6bd
00000250: 1a33 7fb7 f710 c63d a356 ce3d 87a8 cabc
00000260: 6c05 a3bc 4708 6bbd 0ccc a8bd 4db5 493c
00000270: 1678 2bbe c7d5 983d e038 5fbc a2ed b5bd
00000280: 99cb 193e 4b7a b8bc d234 c13d 2931 1a3e
00000290: ba7a 893d 5c0f cebc d777 27be 7cd2 11be
000002a0: d005 b9bd b8aa dc39 59b6 6cbc aa03 b33d
000002b0: 188c 27bd 8379 30bb 4ce1 8b3d 5dc6 41bc
000002c0: 4ef1 d5bb 4261 7e3c 8c19 24be 318d 0cbe
000002d0: 3a7a 50bd cad7 8b3d 93f4 363c ff36 853d
000002e0: a6af cebd 3156 3e3c 785e 0c3e 22dc 49bd
000002f0: 0593 933d c4db da3d 9d91 dabc b0e8 a0ba
00000300: 8e53 1f3d b646 34bc 25a5 6d3e 8a6c 30bd
00000310: c23c 793d adb2 383d 422d 153e d93f 06bd
00000320: 9945 243d f17f 9abc bacf 963d 8ba7 4bbc
00000330: 1c37 ae3d 3920 9a3c 2c24 3dbd 99a7 c13d
00000340: a1f2 babd 37a7 6f3d 82b2 88bc 99f6 82bd
00000350: af00 3c3d 0e5a 95bd 5ea9 a03d f74e a4bd
00000360: 9ff7 67bd 2bc7 37bd 4499 913d 7c8a 52bd
00000370: 57ca 23be 4449 49be c651 5e3d 8f8e 413e
00000380: 2c43 a9bc 3218 35bd 6e98 713e d183 073d
00000390: fa2a 0abc 223e 4d3e 3d65 e4bc 79bb f3bc
000003a0: ce9c 33bd 90e6 f93c 427a fdbd 2512 e73d
000003b0: 9ea6 173c 8db4 51be 97ec c93d 9eff 8cbd
000003c0: 00df b33d 3fe6 ffbd 066e 643c 9356 eb3d
000003d0: 18ce c93d a227 c43d acda a33b c1cc f0bc
000003e0: 47ea 863d 0dbc 99bd 2d30 27bd 303d 273e
000003f0: 17dd 1b3e d02e e33d 233d 0cbd 2204 b9bc
