test/eran_models/mnist_relu_3_100.onnx (onnx, 359219 bytes, 6 tensors)

2.bias f4 [100]
00000000: 904e c63d 34fd 173e a73a 3e3d 326c cf3d
00000010: f212 ce3d 3bd7 f03d a031 513e 9485 663e
00000020: 8a8c 3f3e 0403 1e3e df62 4cbd 6f3b da3d
00000030: e045 913d c73f 163e bf2a 8f3d 61b2 2d3e
00000040: 9d1e 4d3e 3e87 2cbc 5d88 ec3d fcc5 20bd
00000050: 4a04 fd3d 900d 883c f1f5 f63d 5930 453e
00000060: 2d43 fb3d c74d 073d d8a2 9d3d fe0b 273e
00000070: 3a5a ca3d 933e ff3d 1ddd e33d a5a3 a03d
00000080: 1938 753d 9fe0 093e 0355 a03d be3a a43d
00000090: 6a4c 3fbd 1add f83d 9290 393e 9926 543d
000000a0: 99af 26bd a347 753e 231e 823d efb8 7a3d
000000b0: 507d ca3d f52a d53d b345 d53d 2560 403e
000000c0: 81dc 223e 0b53 073e 8117 813e 9995 203e
000000d0: daba fc3d bed4 843d 1e99 a13d 963b 1a3e
000000e0: 4c74 b73d 96ea c03d 6205 5e3e 78ce 193e
000000f0: c8a0 f33d b2ad 043e 7e73 a23d 8d92 2a3e
00000100: 2483 093e f777 983e 2082 0d3e d4ce 763d
00000110: c968 8f3e 66b4 bcbc ee15 543d bde4 b13d
00000120: a0a9 a8bd 335e 4c3c c20f bc3d ad16 b93d
00000130: 2b2e bdbd 3b6d 103e b9f9 853c 96eb d33d
00000140: 52fb 343e e4ec a33d 9871 7cbc 9c6e dd3d
00000150: 1a63 bf3d 70eb 363d 77ce 003d 9df4 1e3e
00000160: 56e9 123e 4fb6 06be 6b1e f63d 9c3b d73c
00000170: 7a33 2a3e 81b3 873d 37d0 f73d 2b92 c23d
00000180: 0675 c93d 39b3 bd3d 8f64 57bc cef4 1c3e
0.09682953 0.14842683 0.046442654 0.101280585 0.10062207 0.11759802 0.20429087 0.22511894
0.18705955 0.15430838 -0.04989898 0.10655867 0.07093406 0.14672767 0.06990575 0.16962577
0.2003121 -0.010530291 0.11549447 -0.039251313 0.12354334 0.01660803 0.12058628 0.19256724
0.12268672 0.03303316 0.076970756 0.16313168 0.098804906 0.12463107 0.111261584 0.07843713
0.059867952 0.13464592 0.07828715 0.08019017 -0.046703734 0.12151547 0.18121555 0.051794622
-0.040694807 0.23953108 0.063534044 0.061211523 0.09887183 0.10408584 0.10413685 0.18786676
0.15904428 0.13215272 0.25213245 0.15682067 0.123403266 0.0648589 0.07890533 0.15061793
0.08957729 0.09419744 0.21681741 0.15020168 0.11895901 0.12956885 0.07932185 0.16657467
0.13428932 0.29779026 0.1381917 0.06025584 0.28009632 -0.02303524 0.051778726 0.086862065
-0.082354784 0.012473631 0.09182693 0.09037528 -0.092373215 0.14104168 0.016354429 0.10347669
0.17673996 0.08004168 -0.015407942 0.10812113 0.09345074 0.044658124 0.0314469 0.15523
0.14346823 -0.13155483 0.120175205 0.026273541 0.16621199 0.066260345 0.12100261 0.095005356
0.098367736 0.092627 -0.013146534 0.1532776

2.weight f4 [100, 784]
00000000: 4c71 0bbe 8a60 f73c 8b88 45be af92 d4bd
00000010: 52e8 e83c 47c8 42bc ffcd 22bd 5d36 cd3c
00000020: 0479 ae3c 282c a53d fe54 8c3c a2d7 f83c
00000030: cf7d c0bd 9f3b 16be 1fe5 563c 10d9 533d
00000040: e66c a9bd f42f b0bd 179f 1b3d 9bf2 f8bd
00000050: c7be a2bd 5e74 a1bd 3fa4 083e ff8a 7bbd
00000060: 69c3 483d 8a18 3dbd 68ff 643d 4404 b8b9
00000070: cdde 17bd 1344 0f3c 1844 113d b0d8 6ebb
00000080: 5a8a b73d b76c 64bd cf82 433d a030 6abd
00000090: 06fb a6bc c25d 04be e545 f7bc 5739 27be
000000a0: 87a0 af3d 6fc1 923d e816 d83d a3cb 09be
000000b0: 4d4b c2bd 49c7 7dbd fcff bbbd ca2d 75bd
000000c0: dc73 03be 999a b4ba d490 9bbd 3af3 003c
000000d0: c512 ccbc d2b0 d5bd a079 dc3c fa91 c23d
000000e0: 7bc2 e23b d5f3 9dbd d7e5 4ebd b20f 753d
000000f0: 5000 313d 7ace d1bd 7772 343b 0fb9 3a3d
00000100: 3905 a6bc 9e75 3c3e d1e6 4e3a 631e b9bd
00000110: cf22 06be ad4a 973d 0df7 0d3e cba5 4b3a
00000120: 16ae a23d 71bb 893d 16a1 de3d 010c f9bd
00000130: ef1f 1d3c 6ae7 6aba 9459 b1bc c3c2 b9bc
00000140: caea 83bd 365d 9bbc be2b ff3c 7f3b aabd
00000150: ee95 253d bfa3 acbd e8e5 08be 3b9a 23bd
00000160: 154e b3bd c281 85bd d752 aabd 9de9 a23d
00000170: b360 a8bd 0138 f13c 4b8e 923c 93a3 4f3e
00000180: 0539 39bc 3e99 c43c 4c40 93bd 77b1 e0bc
00000190: b76f 593e 2e3b 2dbe 21f5 0b3b 7bf9 6bbd
000001a0: fc3f b73d 5eb2 fc3d 8af6 c03d 22f9 b73d
000001b0: 27e2 84bd a79d 763c 0c25 84bd f992 aa3d
000001c0: 37b7 ecbd 4690 1c3e 03cc fe3d e12e f53d
000001d0: 7767 463d a4e1 c13c eeca 52bd d787 2d3e
000001e0: 01c2 71bd e337 8a3c 4c10 98bb 1f52 bbbd
000001f0: 0c72 3fbd c244 213c 2b59 d73d 5d7c 2f3b
00000200: c27c 7a3d 9bee e8bc 30e9 9c3d dd34 903d
00000210: ac08 82bd c49a 243c b98c 343d 81c8 a43d
00000220: 861e a7bd dc7f 83bd 56d9 003e cb30 b13d
00000230: 7754 2cbc 07ee 953d e89f 71bd 1649 90bd
00000240: dd41 72bd c5af dd3d ab4b 923d ba01 ed3d
00000250: cea2 b23c 896e b6bd ff64 003e 5e84 09be
00000260: 77ad a0bd 29d2 413c 77d0 eabc 6f70 9fbd
00000270: 1818 543e 0b96 dd3c aa37 f43d be75 b63d
00000280: 30ea 4c3d ef97 8d3a a8ce febb cf73 4ebd
00000290: 990c 8e3d 0564 8e3d 026f cfbc 334c 413d
000002a0: 18c7 b2bd 6bd5 f33d 0864 bebc c839 333c
000002b0: 9b01 2b3d 9327 42bd 9c24 96bd d131 a83c
000002c0: 844f 62bb 9b32 313d d64f 213d 4285 483c
000002d0: 3c49 62be 554f dabc 94ff a0bd c8c9 003d
000002e0: c42f d03d f7b5 fe3d ec7f 0abe 4119 8a3d
000002f0: fe4d 82bd 1292 b73d 1f2a a43d 88e2 0bbd
00000300: 099d 1bbd 1c53 82bd 22aa 73bd 9d46 74bc
00000310: 9b05 553c 07d2 25be 570c ab3a b663 cebd
00000320: 1cdd 223d cdfc 183d 0b15 bbbd 59e1 a23d
00000330: 45b7 41bd d667 3bbc be28 d2bd afff 813d
00000340: 0ba2 bbbd f77c 27be 161a b3bc 27b5 59bc
00000350: c6a8 d23d 35b1 31bd 3d24 c93d 0458 2b3d
00000360: 1436 e73c 5f11 b0bd ca1b 3cbe 27f4 87bd
00000370: 2fad fa3b acd6 2abd 689e c23d 74d0 a9bd
00000380: 7407 90bd 2411 85bc 16bf 99bd 0bdb 3cbd
00000390: ed96 e4bd 3eb0 c8bd bfda b13d eaec ec3d
000003a0: 94dd 833d 5f09 f4bc fb82 ccbd a556 34be
000003b0: 74d1 41be 0879 66be c359 b5bb 69c5 b23d
000003c0: 13aa 2c3e 09c5 ee3d f4ee 0cbc ca80 1a3d
000003d0: b548 02be 7b80 e03a 62d7 c9bc 84bf 7abd
000003e0: ccb5 89bd 0c69 4d3d 4ae7 923c 8116 95bb
000003f0: 6fe4 a3bd 735c d6bb 1f03 9c3d 4a5d 353d
-0.13617438 0.0301974 -0.19290368 -0.1037954 0.028431091 -0.01188857 -0.039747234 0.025050336
0.02129794 0.08065063 0.017130371 0.03037626 -0.09398996 -0.14671181 0.01311615 0.05172068
-0.08272724 -0.08602896 0.037993517 -0.12155648 -0.07946544 -0.078835234 0.13343905 -0.061411854
0.049014483 -0.04616598 0.055907637 -0.00035098393 -0.037077714 0.0087442575 0.03546533 -0.0036445074
0.08961935 -0.05576774 0.04773217 -0.05717528 -0.02038337 -0.12926391 -0.030184695 -0.16330467
0.0857554 0.07165801 0.10551244 -0.13456587 -0.09487019 -0.06195763 -0.091796845 -0.05985812
-0.12837166 -0.0013778984 -0.07595983 0.00787049 -0.024911294 -0.104341164 0.026913464 0.09500499
0.0069201565 -0.07712523 -0.05051216 0.05982942 0.04321319 -0.102444604 0.0027534047 0.045586642
-0.020266162 0.18404242 0.00078926707 -0.09038999 -0.13099216 0.0738729 0.13863774 0.00077685405
0.079433605 0.06725205 0.108705685 -0.12160493 0.009590133 -0.0008960875 -0.02164916 -0.022675877
-0.06441267 -0.018965345 0.031148788 -0.08312129 0.040426187 -0.084296696 -0.13368952 -0.039942008
-0.08755127 -0.0651889 -0.08316582 0.079547144 -0.08221569 0.02944565 0.017890116 0.20277242
-0.011305098 0.023998853 -0.07189998 -0.027428372 0.21234022 -0.16917107 0.0021355825 -0.05761097
0.08947751 0.12338708 0.094220236 0.08983065 -0.06488448 0.015052236 -0.06452379 0.08328814
-0.11558383 0.15289411 0.12441256 0.11971832 0.048438516 0.023667164 -0.05146306 0.1694635
-0.059022907 0.016872352 -0.0046406146 -0.09146523 -0.046739623 0.009843053 0.10515054 0.0026777007
0.061154135 -0.028434088 0.076616645 0.07041333 -0.0634931 0.010046665 0.044079516 0.080460556
-0.08160119 -0.064208716 0.12582907 0.08651885 -0.010518185 0.07320791 -0.05899039 -0.0704519
-0.059144843 0.10824541 0.07143339 0.11572595 0.021806147 -0.08907802 0.12538527 -0.134294
-0.07845586 0.011829891 -0.028663857 -0.07785117 0.20712316 0.027049085 0.119246796 0.08909176
0.050028026 0.0010802726 -0.0077761 -0.050403412 0.069359966 0.06952671 -0.025321487 0.04719181
-0.0872938 0.119059406 -0.023241058 0.010939069 0.041749578 -0.047401022 -0.073312014 0.020531567
-0.0034532258 0.04326115 0.039382778 0.012238802 -0.22098249 -0.026649157 -0.07861248 0.031442434
0.101653606 0.12437051 -0.13525361 0.06743098 -0.06362532 0.089634076 0.080158465 -0.034151584
-0.037991557 -0.06363508 -0.059488423 -0.014909414 0.013001825 -0.161934 0.0013049942 -0.10077612
0.039761648 0.037350465 -0.09134873 0.07953138 -0.04729392 -0.011438331 -0.10261677 0.06347596
-0.091617666 -0.16356264 -0.021863025 -0.013287819 0.10286097 -0.04338189 0.09821365 0.041831985
0.028224029 -0.08597063 -0.18369976 -0.06638365 0.0076500396 -0.041708633 0.0950287 -0.082917124
-0.070326716 -0.016243525 -0.0750715 -0.046107333 -0.11161599 -0.097992405 0.08684301 0.11568625
0.06438747 -0.029789625 -0.0998592 -0.17611177 -0.18927556 -0.22507107 -0.005534382 0.08729059
0.16861753 0.11658675 -0.008601893 0.03772048 -0.12723048 0.0017128134 -0.024638835 -0.0612178
-0.06724128 0.05014901 0.017932553 -0.004549802 -0.080025546 -0.0065417825 0.07617783 0.04427842

4.bias f4 [100]
00000000: 7bc2 e93d 913a 173d 0b32 643d 730d 7e3d
00000010: 8fb0 163e bbf7 043e c5b9 aa3d f651 9d3d
00000020: 6d66 2a3e 291b c63d 1159 ce3d 6f3d dd3d
00000030: 8f45 dd3d ff06 b43d 3aad f73c e7db 253e
00000040: b922 353e ede1 cc3d 1f63 cb3d 8f76 0d3e
00000050: 26bc 9b3d 4f7c db3d 0ac5 f93d 3095 ce3d
00000060: 5626 323e b8a1 703d c3c2 8c3d 2d2a 5e3e
00000070: 6b9e 013e b70b f83d 6d3f f33d c509 243e
00000080: 7ec3 053e 238c 2a3e c988 833d bccd 6c3d
00000090: 3817 ce3d b56f 273e f4a2 c13d a30a fc3d
000000a0: 3fb5 a73d 09d0 f23d d938 f43d 278b 803d
000000b0: 3563 e13d c580 133e d3a2 213e f304 863d
000000c0: 2c7f 2e3e 1328 813e c1ee 023e 1b7f 7e3d
000000d0: ecc1 913d c4c1 bc3d 141b c53d e98c c43d
000000e0: 900f ad3d ec01 123e 4661 293e 27ca 9e3d
000000f0: 2bdf 993a c0cd 8b3c 6c2c 963e 86c2 ac3d
00000100: cdcd 553d fe3b de3d 6417 883d 1024 f33d
00000110: 38aa fa3c 5386 c53d 0042 be3d 8b2b 6a3e
00000120: e637 183e b8ac fc3d 4af5 0b3e 1eb6 f93d
00000130: 6aab ba3d da99 fd3d c680 be3d bcc5 aa3d
00000140: 8555 043e 4f86 293e bb28 2e3e d083 df3d
00000150: 2837 c93c 7f43 723d 85bf c83d 1238 f73d
00000160: ba59 a33d dc1e eb3d 8dce 8b3d 3e00 383e
00000170: 1024 ea3d 006e 473e adcc 8c3d 256a e93d
00000180: df75 7a3d e2c5 0e3e 2de2 763d 75b9 b13d
0.11414047 0.036921088 0.055711787 0.062024545 0.1471579 0.12985127 0.08336214 0.076816484
0.16640635 0.09673149 0.10075582 0.10802733 0.10804283 0.08790397 0.030233968 0.16197167
0.17689027 0.100040294 0.09931015 0.13814758 0.07604246 0.10717069 0.12195785 0.10087049
0.17397436 0.058747977 0.06873085 0.21695776 0.12658088 0.121116094 0.11877332 0.16019352
0.13062856 0.1665502 0.06422574 0.05781339 0.100630224 0.16351207 0.09454909 0.12306716
0.08188867 0.11856086 0.11924905 0.06276541 0.1100525 0.1440459 0.15784769 0.06543913
0.170407 0.25225887 0.1278639 0.062132936 0.07117066 0.09216645 0.09624305 0.09597189
0.08450234 0.14258546 0.16541013 0.07753401 0.0011739483 0.017065883 0.29330766 0.0843554
0.05219822 0.10851286 0.066450864 0.11872113 0.030598745 0.09644761 0.09289932 0.22868173
0.14865074 0.12337631 0.13667789 0.12192939 0.09114726 0.123828605 0.09301905 0.08338496
0.12923248 0.16555141 0.17007725 0.10913813 0.024562433 0.0591464 0.098021545 0.120712414
0.07976098 0.11480495 0.06826506 0.17968842 0.114326596 0.19475555 0.06874976 0.113971986
0.061147567 0.13942674 0.06027429 0.08677951

4.weight f4 [100, 100]
00000000: def4 42bb f724 343e ace2 55be c381 72bd
00000010: 0d7c 21be edb5 0abe 1a33 803d bd8d b93d
00000020: fec1 01be 83f3 26be 8e0f 96bd 4605 113d
00000030: f6f1 08be ae62 9bbc c4a9 8f3c 0a4d acbc
00000040: f0b3 473e dce8 1f3d 35fe 9dbe 9fbb 02be
00000050: 3518 ef3c ee9a a73d f272 a23d ec69 153e
00000060: 5fbd 173e 066f 123b d22e 67bb 1da5 87be
00000070: eadf 943c 8eb2 ba3d 9eba 91bd 266d 0dbd
00000080: e278 ba3d a70c 11be 3844 f6b9 8074 063d
00000090: 4caf 16be 4775 9fbd 49f9 c33d 8044 2abe
000000a0: f17c a63d 31f1 b4be 8fe4 223c 5e71 853d
000000b0: eb8c 84bd 8f38 7c3d 9f8a 113e 671b babc
000000c0: e20e c0bd 4dca 16be 6ce7 283e b866 9bbc
000000d0: 5f80 653d 7e82 35be 33bd 3d3e 34f8 90ba
000000e0: bd19 6fbd 2595 303e 70ce a9bd bc05 2a3d
000000f0: 8138 8ebd e18d bcbe 5f99 813c 347c 5ebe
00000100: 774e 2ebe 073f f4bd 3a57 123e 7cc3 ebbc
00000110: 5b35 63be 89c3 13be 41e6 923d 2269 da3d
00000120: 6796 ebbc 5df3 f0bd ebb6 b43d 7845 fc3d
00000130: a638 9dbd 5289 793c 293f df3d cca4 223e
00000140: 3788 b7bd 058a 2f3e dad4 903d 79f0 563c
00000150: 1ac0 923d 9db2 68be df5e 8a3d df29 c4bd
00000160: e8c2 f3bd c6f6 513e 59b4 143e ca1d 353d
00000170: 1bae c0bc b0c2 a93c a8f6 abbd 15c1 913b
00000180: 205a febc 4acd 42be cd56 ecbd 99ae 463e
00000190: 62b4 293c 4979 b63d 0bbc edbc 359e ce3d
000001a0: e694 703e 89b8 823e 629a 0ebd 419d 0dbd
000001b0: d0b2 39bd 587a 7cbc 1623 fe3b 502d ca3d
000001c0: 4dff 303e 5ffb c3bd 5b3e f13d f016 0e3e
000001d0: 60ca acbc 3794 493c 748b c93d db31 cfbb
000001e0: 4676 223d 74b2 9abd 4a8e 08bc 1f45 c83b
000001f0: 0ac0 4dbe fd70 44bd 1629 f53d 74f8 42bb
00000200: a31f 1f3e c005 623b 9403 05bb b6aa dabd
00000210: 0d6b 053e 6c08 a03d 1a32 d53c eaff f93c
00000220: a7cf 8e3e d049 233d fb65 763c 0a2b 703c
00000230: 6605 1e3b a501 753d 5057 c03c d538 9fbb
00000240: ca71 713e fcfc e53d 039d e6bd b082 77bd
00000250: f94f 0d3e ef70 e03d f6e4 8cbd 1324 00be
00000260: b595 abbd 9ee4 e33d 7be5 033d b0c2 843c
00000270: d98d 9c3d 0f07 5b3c 8685 c0ba e89b 67be
00000280: 57ff eb3c 3491 0cbe 34ae 93bd 8a3c 8fbe
00000290: c414 143e 0a60 2ebe 347d 383d 7914 c93d
000002a0: 76be 393e 0e04 0c3e 58db 2f3e 1ab8 89bc
000002b0: 4dd9 2abe d9f8 34be debe c83d 066f 81be
000002c0: 386a 253d 21a7 4b3e d6b5 153d 8315 d83c
000002d0: 2952 66be 2bd8 b43d 4866 1cbe 6115 5bbd
000002e0: cdc9 693c de22 fb3d 2995 8bbe a178 aaba
000002f0: 9337 283e 6952 c2bd 217b b03d 1344 903d
00000300: f19b 8b3d 8142 923d 4265 243e f798 903d
00000310: 2d89 893d 99ae d8bd 3e3f 1cbc 3768 353c
00000320: 43c5 d53c fcdb 61bd 85d6 77bd 03d9 27bd
00000330: 3a28 653c aa32 963d d05f 85bc 7c9b 613e
00000340: 4f84 463d 8944 c93c d909 cc3c 5ab4 963c
00000350: 2db1 0b3d c215 b3bd b078 30bc 72ba 94bd
00000360: c80d 033e af4e 3b3d eb9c 8bbd 9c42 3d3c
00000370: 9e8b 5f3d 992d f2bd 353c 9f3c 82fb d9bc
00000380: 8e59 0c3e 3c60 a83d 8e58 413d b643 a4bd
00000390: 0f84 4a3d 7d2f 3a3e fbb2 f4bd 585c 2a3d
000003a0: a37c a0bd dbc0 d4bb 3ef8 713d e8f7 d63d
000003b0: 28a1 b53c 4309 a43d 9d3a 4b3e 8362 29be
000003c0: 69b1 5f3c 7f12 9bbd 48b6 8a3d a440 153d
000003d0: 3f33 cdbd 78b1 73b9 40d9 3d3d 1e74 16be
000003e0: 8718 093e 3781 bfbc ebf3 823d bfe7 e1bd
000003f0: bebe 09bd 8e31 e4bd 10d7 f5bd 3a45 0d38
-0.0029748003 0.17592226 -0.2088725 -0.05920578 -0.15769978 -0.13545962 0.06259747 0.090602376
-0.12671658 -0.1630383 -0.073271856 0.03540542 -0.13373551 -0.018967953 0.017537005 -0.021032829
0.19502234 0.03904043 -0.30858007 -0.12766884 0.029186347 0.08183847 0.0793208 0.14591187
0.14818333 0.0022344007 -0.003527571 -0.2649316 0.018173177 0.09116088 -0.071156725 -0.03452792
0.09105088 -0.14164983 -0.00046971603 0.032825947 -0.14715308 -0.07786041 0.09569032 -0.16627693
0.081292994 -0.35340264 0.009942188 0.06515764 -0.064721905 0.061577376 0.14213036 -0.022718145
-0.09377839 -0.14725609 0.1649453 -0.018969879 0.056030627 -0.1772556 0.18529205 -0.0011060298
-0.058374155 0.17244394 -0.08291328 0.041509375 -0.06944371 -0.36826995 0.015820203 -0.21727067
-0.1702212 -0.11926084 0.14291087 -0.028779738 -0.22188322 -0.1443006 0.07172824 0.10664584
-0.02875824 -0.11765168 0.08823951 0.123179376 -0.076768205 0.015230494 0.10900719 0.15883178
-0.08961528 0.17142494 0.07071848 0.013118857 0.07165547 -0.22724386 0.067563765 -0.09578299
-0.1190241 0.20504293 0.14521922 0.044217862 -0.02352052 0.020722717 -0.08396655 0.004448066
-0.031048834 -0.19023624 -0.115399934 0.19402541 0.010357948 0.08909852 -0.02902033 0.10088769
0.234943 0.25531414 -0.0348152 -0.034573797 -0.045336545 -0.015410028 0.0077556474 0.09871924
0.1728489 -0.095694296 0.117794715 0.13875937 -0.021092594 0.012303404 0.09841052 -0.006323082
0.039663576 -0.075535685 -0.008334706 0.0061117555 -0.20092788 -0.047959317 0.11970727 -0.002975014
0.15539412 0.003448829 -0.0020296322 -0.10677092 0.13029118 0.07814106 0.026024867 0.030517537
0.278928 0.039865315 0.0150389625 0.014658699 0.0024112104 0.05981602 0.023479134 -0.00485907
0.23578563 0.112298936 -0.11260416 -0.060427368 0.13800038 0.109590404 -0.06879608 -0.12513761
-0.08378164 0.1112759 0.03220127 0.016206115 0.07644243 0.013368382 -0.0014688231 -0.22618067
0.028808279 -0.13727266 -0.07210961 -0.27975875 0.14461046 -0.17028823 0.045041278 0.09818358
0.18139061 0.13673422 0.17173517 -0.01681142 -0.16684456 -0.17673053 0.0980203 -0.25280017
0.0403845 0.19887973 0.036550365 0.026377445 -0.22492279 0.08830293 -0.15273392 -0.053487185
0.014269304 0.1226251 -0.27262238 -0.0013005921 0.1642745 -0.09488375 0.08617235 0.07044234
0.06816853 0.07141591 0.16054252 0.07060426 0.06715617 -0.10580177 -0.0095365625 0.01107221
0.026095038 -0.055141434 -0.060507316 -0.040978443 0.013986642 0.07333882 -0.016281039 0.22031969
0.048466023 0.024568813 0.02490704 0.018396545 0.034104515 -0.08744384 -0.010770962 -0.07262124
0.12798226 0.045729335 -0.06817039 0.011551525 0.05457651 -0.11825103 0.019437889 -0.026609186
0.13706037 0.0822148 0.047203593 -0.08020727 0.049442347 0.18182178 -0.119482 0.041591972
-0.078362726 -0.0064927167 0.059074633 0.10496503 0.022171572 0.08009579 0.19846578 -0.16541485
0.013653138 -0.07571887 0.06773049 0.0364386 -0.1001954 -0.00023240398 0.046349764 -0.14692733
0.13388263 -0.023377044 0.0639418 -0.1103053 -0.03362917 -0.11142264 -0.120039105 3.3681492e-05

6.bias f4 [10]
00000000: b073 a53b e47e 39bd 4b29 8bbc 7819 333d
00000010: ab31 e73d b48a b13e 8aad 8cbd 4c66 0cbd
00000020: 0de1 e63e 09d3 523e
0.0050491914 -0.045287028 -0.016987463 0.04372546 0.1128877 0.34676135 -0.068690374 -0.034277245
0.45093575 0.20588316

6.weight f4 [10, 100]
00000000: e2ca 65be 2a5e a3be 4599 98bd 4bf4 8cbd
00000010: 4e22 d23d 5360 bdbe b8ff e33e f286 63be
00000020: 0d68 48be 7f1b 72bd 81e5 84be 4620 b23d
00000030: 48ef 6c3e 81b6 46be 97dc 323e 4173 a33e
00000040: d7f3 80bd caaf ef3a 8343 0abe 2260 e83d
00000050: 31d8 fcbd a682 75be f793 b5bd 0327 8ebd
00000060: 259f 6fbd 5717 023e e058 ef3d d235 4abe
00000070: 4459 bd3e ec47 c6be 313b c23e c141 2bbb
00000080: 2694 f3bc 8084 c6bd e265 963c 4c62 793e
00000090: 1b84 063e a85d 3bbd 3b45 2b3e 188b 7cbd
000000a0: dba8 8bbe 3d24 2ebd 3c38 92bd 9ca6 96be
000000b0: 7f40 d4bd 39c1 c9be 3583 a0bd 812d a3bd
000000c0: 88e3 a8be d2d1 96be 3a58 9dbd ddae f53d
000000d0: 0484 58be d01e 763d 6ab8 64be 2733 70bd
000000e0: c57b 553e e73a d7bd 1cc9 363e 0443 1a3e
000000f0: 7598 1b3d 3cbe 68be dc15 de3c d00b d2be
00000100: aaaa 0b3f 6a5c c6bc c27a 863e 2daf 513d
00000110: 5943 5a3c 00bc 9fbe 0230 f5bb bc44 933e
00000120: c7e9 573d da66 bebd 4a0f 78be a520 1e3e
00000130: fb53 a2bb e547 89be fe2a 1b3e d35c 8dbd
00000140: 7077 80be 3cdc 4e3e 3ffa 4ebd 4071 8c3e
00000150: 3ca8 5b3e 171c 38be 9aa3 91bb d9f3 673c
00000160: 3186 05bd 4c10 9b3d 4ab9 7b3d 0c59 4cbe
00000170: 7f4c 8e3d 3944 2dbe 8514 d0bc ce0f fb3d
00000180: b481 8f3e 99de c3bb fd85 dc3e 6823 19be
00000190: c14e 863e 0ef6 873e 3a81 e73d 1525 6d3e
000001a0: b06b 1ebe bad3 5e3d b12a 50be bb5a 993d
000001b0: 7e2b b93e cf95 0dbe 7cdd 4dbe 7c93 40be
000001c0: 6986 463d 0e18 14be 9a8e 963e 3d9b 7abd
000001d0: 1184 3dbe 4850 eabd 1697 aa3e cc99 7ebc
000001e0: 3a6b be3e e3a9 8d3a 3217 8dbe 6193 37bd
000001f0: 7191 2f3d 59e4 39be 8c11 45bd 3d09 58bd
00000200: c2cb 64be 8945 de3d 2ad3 e8bd 4b71 923d
00000210: 4e89 84be 3ec0 2dbd 26d3 acbd eee8 1fbe
00000220: a076 023d 810a 59be 4d5a 5dbb a501 ff3c
00000230: 5656 7a3e df9c c73d 5083 b33d ce7e 283f
00000240: 7cfe 32be 5ad7 05be 646c 22bd 288e 9fbd
00000250: 9393 3d3e 870e a3be 6e0c 433d 2340 b33d
00000260: ea8d 2dbe eb0c 83bd a03c 513e edd3 593d
00000270: 6cb6 1f3d c264 2e3e ca77 0f3e 52bf 7c3e
00000280: f3ac ea3e 2120 273d 6701 5cbe 2616 bb3d
00000290: 0b3a 0ebe f56c 4a3d e161 0a3e ff96 04be
000002a0: bdc1 103f f138 4dbe 68d1 98be 9e46 eebd
000002b0: a349 23be 9a5b 43be ddf1 92be d662 06be
000002c0: 0fba 44be 577a c6bc 50fa f2bd a020 393e
000002d0: caf8 843e ed93 babe 6709 8abe f321 3a3e
000002e0: a4a9 f43d c450 17be c7c6 893b 3e33 013f
000002f0: 1cad f9bc fe07 3abe e2de 21be 8088 a2be
00000300: 55b5 343d 73b9 91be 6080 8dbd 4662 193d
00000310: 1e7d 61be 0679 013d 4a6e 1dbe 1dc4 143e
00000320: d541 75be f634 4f3e 51cc 46be a248 edbd
00000330: c505 2dbe 2fd4 c83d ccd7 a13d 46ab be3e
00000340: c4bf 9dbe 8e3b 053d 4f64 ab3e 69ed 49be
00000350: 40d4 1f3e 54be dc3d 8749 f83e a515 9abe
00000360: 9d49 03bc 379b d0bd 5ef2 4ebe f95c 03be
00000370: fcfd 3abe 4922 103d dafb 3b3e d630 41bd
00000380: 8cf1 84bd 57da 53be b8b6 83bd 3714 84be
00000390: ba2f 623d 3f46 8e3e 868d 023f 9894 213d
000003a0: 13c4 cc3d 9416 3b3e 7783 81be 9482 aa3d
000003b0: 21f0 8d3b a46f d6bd 5e6a efbd c38c 0f3e
000003c0: ddc4 52be 33b7 2e3d 0fd5 a3bc 3fdc 14bd
000003d0: 1cc0 83be 772b 9b3e bd24 c1be 2aa3 aa3e
000003e0: b46d 36be 12c1 23be af50 f43b 7c10 e9bc
000003f0: 68d2 a7be 9972 b33b 88af aebe 7111 4a3d
-0.22440675 -0.3190778 -0.07451109 -0.06882533 0.10260449 -0.36987552 0.44531035 -0.22219446
-0.19570942 -0.059108254 -0.25956348 0.08697562 0.23138154 -0.19405557 0.17466961 0.3192387
-0.06296509 0.0018286642 -0.13502316 0.11346461 -0.12345923 -0.2397562 -0.08866113 -0.06941035
-0.05850138 0.12704216 0.116868734 -0.19747093 0.36982167 -0.38726747 0.37935784 -0.0026131722
-0.029733729 -0.09693241 0.018359128 0.24353904 0.13136332 -0.045743614 0.16725628 -0.061656088
-0.27277264 -0.04251503 -0.07139632 -0.29423988 -0.10363864 -0.3940523 -0.07837526 -0.079676636
-0.32986093 -0.29456955 -0.076828435 0.11996243 -0.2114411 0.06008798 -0.22335973 -0.058642533
0.20847996 -0.105092816 0.17850155 0.15064627 0.03798719 -0.22728819 0.027110033 -0.41024637
0.5455729 -0.024213988 0.26265532 0.05119245 0.013321721 -0.3119812 -0.0074825296 0.28763378
0.05271318 -0.09296961 -0.24224582 0.1544214 -0.004953859 -0.26812664 0.15153119 -0.069024704
-0.25091124 0.202012 -0.050531622 0.27430153 0.21450895 -0.17979465 -0.0044445517 0.014157259
-0.032598678 0.07571468 0.061456002 -0.19955844 0.06948184 -0.16920556 -0.02540041 0.12258874
0.28028643 -0.0059774634 0.43070975 -0.14954913 0.2623196 0.26554912 0.11303945 0.23158677
-0.15470767 0.054401137 -0.20328785 0.074880086 0.36165994 -0.13826679 -0.20104021 -0.18806261
0.048468027 -0.14462301 0.2940567 -0.061183203 -0.1850741 -0.11441094 0.33318394 -0.015539598
0.37191182 0.0010808076 -0.2755676 -0.044818286 0.042863313 -0.18153514 -0.048112437 -0.052743185
-0.22343352 0.108531065 -0.11368401 0.07150515 -0.25886005 -0.042419665 -0.08438711 -0.156162
0.03185141 -0.21195413 -0.0033775747 0.031128714 0.24446997 0.09746718 0.0876528 0.6581849
-0.1747989 -0.13070431 -0.03965415 -0.07790786 0.18513326 -0.3184702 0.047619276 0.087524675
-0.16948667 -0.06398948 0.20433283 0.053180624 0.03899233 0.17030624 0.1401054 0.24682358
0.45835075 0.040802125 -0.2148491 0.09135084 -0.13889329 0.049420316 0.135139 -0.12948225
0.5654562 -0.20041253 -0.29847264 -0.11634563 -0.15946059 -0.19077912 -0.28700152 -0.1312364
-0.192116 -0.024228258 -0.118641496 0.18078852 0.2597106 -0.36440983 -0.26960298 0.18177013
0.11946419 -0.14776903 0.0042046043 0.50468814 -0.030478053 -0.18167111 -0.1580768 -0.31744766
0.044118244 -0.284618 -0.06909251 0.037447236 -0.22020385 0.031609558 -0.15374103 0.14527936
-0.23950894 0.20235047 -0.19413878 -0.11586119 -0.16896732 0.09806096 0.07902488 0.37240046
-0.30810368 0.0325275 0.33474967 -0.19719471 0.1560831 0.1077849 0.48493597 -0.30094638
-0.008013156 -0.10185855 -0.20209643 -0.12828435 -0.1826095 0.035188947 0.18357792 -0.047165714
-0.06491384 -0.20688759 -0.06431335 -0.25796673 0.055221297 0.2778797 0.509972 0.03944835
0.09998336 0.18270332 -0.25295612 0.08325687 0.004331604 -0.104705125 -0.1169021 0.1401854
-0.2058291 0.04265518 -0.019999055 -0.036342856 -0.25732505 0.303066 -0.37723342 0.3332761
-0.17815286 -0.15991619 0.0074559073 -0.028450243 -0.32777715 0.0054763076 -0.34118295 0.04933304
